params/current_net.pth (torch, 154751 bytes, 9 tensors)

feature.0.weight f4 [128, 30]
0	0xbd386011	-0.04501349
1	0xbe7b1c35	-0.24522479
2	0xbe224f12	-0.15850475
3	0xbe5d158f	-0.21590255
4	0x3c0ee57e	0.008721707
5	0xbe6274f1	-0.22114922
6	0xbd68a8e9	-0.05680171
7	0x3d157f19	0.036498163
8	0x3cc85391	0.02445391
9	0xbe0194ef	-0.1265447
10	0x3be590fa	0.007005808
11	0xbde14e92	-0.11001314
12	0xbe30b423	-0.17256217
13	0xbe2c1a43	-0.16806893
14	0xbe3dd9f6	-0.18540177
15	0xbd97fef6	-0.07421677
16	0x3d96d016	0.07363908
17	0xbd9154c5	-0.07096247
18	0xbdb6e393	-0.08930125
19	0xbe789109	-0.24274077
20	0x3dbb1e0d	0.09136591
21	0xbd7afb37	-0.061274733
22	0xbd91f37b	-0.07126518
23	0xbda3578f	-0.07975685
24	0x3d692154	0.05691655
25	0xbe54ac15	-0.20768769
26	0xbd8b7301	-0.06809045
27	0xbe7b0d3f	-0.24516772
28	0xbe83c59c	-0.257367
29	0x3d12020f	0.035646494
30	0x3d6e35d4	0.058156803
31	0xbde7181b	-0.11283895
32	0xbe3fd8c9	-0.1873504
33	0xbe85d64c	-0.26140058
34	0xbe388d69	-0.18022694
35	0xbaf41119	-0.0018620818
36	0xbc4e0e3f	-0.012576639
37	0x3d3ceb39	0.046122763
38	0xbdff805d	-0.12475655
39	0x3d1463de	0.036228053
40	0x3d922a32	0.07136954
41	0xbdb5fffa	-0.08886714
42	0xbdd385c6	-0.1032825
43	0x3d94d7f5	0.07267753
44	0xbe445199	-0.19171752
45	0xbd19baab	-0.037531536
46	0xbdaf8816	-0.08570878
47	0x3dad359b	0.0845749
48	0x3d8ccb34	0.068746954
49	0xbe7c2cc6	-0.24626455
50	0xbdb366ae	-0.08759819
51	0xbda1af97	-0.07894819
52	0xbe59f804	-0.21286017
53	0xbdeab9e1	-0.11461235
54	0xbde18ed3	-0.1101357
55	0xbdaac2d0	-0.08337939
56	0x3cb799c9	0.022412198
57	0xbdb5e4a7	-0.088815026
58	0xbd9d89ef	-0.07692324
59	0xbe57f01e	-0.21087691
60	0xbd97fb2d	-0.07420955
61	0x3daadbc8	0.08342701
62	0xbdb09925	-0.0862296
63	0x3e0c5d76	0.13707528
64	0xbe27876f	-0.16360258
65	0xbc2bad10	-0.010478273
66	0xbe2131bf	-0.15741633
67	0xbd8e05ca	-0.06934698
68	0x3d8342e4	0.06409243
69	0xbe327883	-0.17428784
70	0xbded19b3	-0.11577167
71	0x3e19a8fa	0.15005866
72	0x3d84b39c	0.0647957
73	0xbd9818f2	-0.07426633
74	0xbe185efb	-0.14879982
75	0xbd237c98	-0.039913744
76	0x3d68d04c	0.056839272
77	0xbde3b013	-0.11117568
78	0x3d350c7c	0.04420136
79	0xbd9498df	-0.0725572
80	0x3dd5a988	0.10432726
81	0xbddef9c3	-0.10887482
82	0x3e382f76	0.17986855
83	0xbe173a53	-0.14768343
84	0xbd5efcf8	-0.05444047
85	0x3d30f684	0.043203846
86	0xbbd90fe0	-0.006624207
87	0xbd9a8061	-0.075440176
88	0x3e2f4802	0.17117313
89	0x3df96fdc	0.121795386
90	0x3c812482	0.015764479
91	0xbde3c0f9	-0.11120791
92	0xbe00b746	-0.12569913
93	0xbdc653ef	-0.09683978
94	0xbe57b0c1	-0.2106352
95	0xbe243877	-0.16037165
96	0xbdbe8ad5	-0.09303824
97	0xbcdb6a9f	-0.02678424
98	0x3da0b6ec	0.078473896
99	0xbe5618c9	-0.20907892
100	0xbe09a421	-0.13441516
101	0xbd6acd99	-0.05732498
102	0x3d2d6e6e	0.042341642
103	0xbe24b9fb	-0.16086571
104	0xbe637435	-0.22212298
105	0xbd821808	-0.0635224
106	0xbd89dbdb	-0.06731387
107	0x3def3798	0.116805255
108	0xbdd5b881	-0.10435582
109	0xbdeeccd0	-0.11660159
110	0xbd07aef1	-0.03312582
111	0xbe4dd3b7	-0.20100294
112	0xbe26975e	-0.1626868
113	0xbe77e423	-0.24208121
114	0xbc02ede7	-0.007991291
115	0xbc84dafc	-0.016217701
116	0xbc3888f6	-0.011263123
117	0x3d1afa9b	0.037836652
118	0x3cc2f7eb	0.023799857
119	0x3da9787e	0.08274935
120	0x3dfb2a5b	0.12263938
121	0xbe8c4361	-0.27395156
122	0x3d0cd45d	0.034382213
123	0xbdb43f8c	-0.08801183
124	0x3d48b066	0.04899635
125	0xbe1bd38d	-0.15217419
126	0xbe798f31	-0.2437103
127	0x3d1828a1	0.03714812
128	0x3d2a4526	0.04156985
129	0xbe889ec2	-0.26683623
130	0x3d983d5a	0.07433577
131	0xbdf1c12b	-0.11804422
132	0xbd86ecb3	-0.065881155
133	0xbe14b770	-0.14523101
134	0x3da29f31	0.079405196
135	0xbc55387c	-0.013013955
136	0xbe234fd9	-0.15948428
137	0xbcbaf260	-0.022820652
138	0xbe5fa668	-0.21840823
139	0xbe20a573	-0.15688114
140	0xbe1adc76	-0.15123162
141	0xbea6dd7a	-0.32590848
142	0xbd994259	-0.07483358
143	0xbe23c056	-0.15991339
144	0xbd538b1c	-0.051646337
145	0x3db051ac	0.08609328
146	0xbe89d7e1	-0.26922515
147	0x3d957609	0.07297904
148	0xbd640330	-0.055667102
149	0x3a86b640	0.0010277703
150	0xbdab768c	-0.083722204
151	0xbe1619d8	-0.14658296
152	0xbd781218	-0.06056413
153	0xbe370814	-0.17874175
154	0xbd6905b0	-0.05689019
155	0xbe5a0dea	-0.2129437
156	0xbd4bb6bd	-0.04973482
157	0xbde3847d	-0.111092545
158	0xbe12487d	-0.14285465
159	0xbdf6117d	-0.120150544
160	0xbec7cf25	-0.39025226
161	0x3d6ad515	0.057332117
162	0x3d660ea7	0.056166317
163	0xbdb90b62	-0.09035374
164	0x3cc67c05	0.024229059
165	0xbdca03f1	-0.09864033
166	0x3df94906	0.12172131
167	0xbc1ddb79	-0.009634846
168	0xbe2c1344	-0.16804224
169	0xbca475bc	-0.020075671
170	0xbe88bb78	-0.26705527
171	0x3e093262	0.13398126
172	0xbe92329f	-0.28554246
173	0x3e11c59f	0.14235543
174	0xbe686c7c	-0.22697634
175	0xbee0cf7b	-0.43908295
176	0xbd068950	-0.032845795
177	0xbd0ce9b8	-0.03440258
178	0x3d58cd33	0.05293007
179	0xbd3400be	-0.04394602
180	0xbf0df18a	-0.55446684
181	0xbec87b39	-0.3915651
182	0x3ecf771f	0.4052057
183	0xbe2b223b	-0.16712277
184	0x3e044310	0.12916207
185	0xbf39e54c	-0.72615504
186	0xbed0e82e	-0.4080214
187	0x3efb628c	0.49098623
188	0xbebc74ca	-0.36807853
189	0xbe10ffeb	-0.14160125
190	0xbf177256	-0.5915884
191	0xbebcc8cc	-0.36871946
192	0xc0169045	-2.3525555
193	0xbed48899	-0.41510466
194	0xbfc16381	-1.5108491
195	0xbf1504d5	-0.582105
196	0xbed5a0d2	-0.4172426
197	0x3edddca9	0.43332413
198	0xbee362b7	-0.4441125
199	0x3d74f4ed	0.059803892
200	0xbef7c27c	-0.48390567
201	0xbe3ffc33	-0.1874855
202	0x3ec77774	0.38958323
203	0xbebbea5a	-0.36702234
204	0xbbb3ae5d	-0.005483432
205	0xbf0975c2	-0.5369531
206	0xbeff9c9c	-0.4992417
207	0x3eb3e20e	0.35133404
208	0xbec2e6b5	-0.3806664
209	0x3d8b8c35	0.06813852
210	0xbc827c48	-0.015928403
211	0xbe11f41d	-0.14253278
212	0xbe2cb2f4	-0.1686514
213	0xbdf3a9a2	-0.11897589
214	0x3dfc6e2c	0.12325701
215	0x3b9e56a0	0.004832104
216	0xbdc2cfc5	-0.09512285
217	0x3db84578	0.08997625
218	0xbcb4eb90	-0.022084981
219	0xbe340261	-0.17579032
220	0x3d0aab40	0.033854723
221	0xbe0835d0	-0.13301778
222	0xbdf2274e	-0.11823903
223	0x3e222236	0.15833363
224	0xbc978ee0	-0.018500745
225	0x3dcb2b20	0.09920335
226	0xbd1fa114	-0.038971975
227	0xbdd01629	-0.10160477
228	0xbe08985e	-0.13339373
229	0xbd90c53f	-0.07068872
230	0xbdb06d71	-0.08614624
231	0x3ddb02b4	0.10693875
232	0x3db5ac48	0.08870751
233	0x3e3a782c	0.18209904
234	0xbdf29d60	-0.11846423
235	0x3e288d68	0.16460192
236	0xbcb134f8	-0.021631703
237	0x3dbe71b4	0.09299031
238	0x3e20cd6a	0.15703359
239	0x3e3886f8	0.18020236
240	0xbe031fed	-0.12805147
241	0xbd2f6fa7	-0.04283109
242	0xbe19a396	-0.1500381
243	0xbdc7b414	-0.09751144
244	0xbcfd2467	-0.030901147
245	0xb99c72e6	-0.00029840245
246	0x3be8126b	0.0070822737
247	0x3b68dd39	0.003553225
248	0xbe8664d7	-0.2624881
249	0xbe55e129	-0.20886673
250	0xbe1b22b4	-0.15149957
251	0xbd15c8f8	-0.03656861
252	0xbf8856dc	-1.0651507
253	0xbe431b1b	-0.19053309
254	0xbe1bce95	-0.15215524
255	0xbe2fb084	-0.17157179

feature.0.bias f4 [128]
0	0xbd494fef	-0.049148496
1	0x3de58db3	0.112086676
2	0x3e300476	0.17189202
3	0x3d3874f2	0.045033403
4	0xbcc351da	-0.02384274
5	0xbf040df9	-0.5158382
6	0x3e89ed34	0.26938784
7	0x3e09106a	0.13385168
8	0xbdccbc06	-0.099968
9	0xbf0427ca	-0.51623213
10	0xbeafc9b3	-0.34333572
11	0xbe409a4b	-0.18808858
12	0x3d46a941	0.048501257
13	0x3d17a2c7	0.03702047
14	0xbe30bda7	-0.17259847
15	0xbe36bd4d	-0.1784565
16	0x3b384650	0.0028118081
17	0xbe356fd8	-0.17718446
18	0xbedc4b59	-0.43026236
19	0x3e593f31	0.21215512
20	0xbe39b9cf	-0.18137287
21	0x3e6d2e63	0.23162226
22	0xbe4e7f1b	-0.20165674
23	0xbda525b5	-0.08063833
24	0xbe608e02	-0.21929172
25	0x3baf1ee0	0.0053442568
26	0xbd200f09	-0.03907684
27	0x3bb444ef	0.0055013816
28	0xbe921a6f	-0.28535792
29	0xbe2c21ab	-0.16809718
30	0xbe59ba2c	-0.21262425
31	0xbd391c46	-0.04519298
32	0xbe190bcb	-0.14945905
33	0xbdfc673c	-0.12324378
34	0xbe37e4dd	-0.17958398
35	0xbc47933c	-0.0121810995
36	0xbd939363	-0.07205846
37	0xbe5de2a1	-0.21668483
38	0xbc80cb27	-0.01572187
39	0xbe079415	-0.13240083
40	0xbbdfb2e7	-0.0068267467
41	0xbe00f083	-0.12591748
42	0xbd2cd9da	-0.042199947
43	0xbe4ebdfc	-0.20189661
44	0x3df92604	0.12165454
45	0x3c3d24fe	0.011544464
46	0xbe28bc2f	-0.16478036
47	0xbe5e4708	-0.21706784
48	0x3defb43d	0.117042996
49	0xbe1271cf	-0.14301227
50	0xbdadfd57	-0.08495586
51	0xbdf2357d	-0.11826608
52	0x3d1e9f71	0.038726274
53	0xbda10d3c	-0.078638524
54	0xbe4c1514	-0.19929916
55	0xbe4d13ca	-0.2002708
56	0xbdc9f8d5	-0.09861914
57	0x3ca61a61	0.02027625
58	0x3d44e0de	0.048066013
59	0xbf16b158	-0.58864355
60	0xbd8adfb0	-0.06780946
61	0xbdb12e1b	-0.08651372
62	0xbd88dd1c	-0.06682798
63	0x3d6f9f28	0.058501393
64	0xbe5cd8ea	-0.21567121
65	0x3b968a2c	0.004594108
66	0xbdb4e2b5	-0.088323034
67	0xbe8d17d4	-0.27557242
68	0x3de0d074	0.10977259
69	0x3c74537d	0.014912483
70	0xbe21dd31	-0.15807034
71	0x3da30464	0.07959822
72	0xbd756f8a	-0.059920825
73	0xbe3b7bbe	-0.18308923
74	0xbcbb2054	-0.022842564
75	0xbdf36892	-0.118851796
76	0xbceea658	-0.029132053
77	0xbe13986d	-0.14413615
78	0xbc06fa10	-0.0082383305
79	0xbd57e656	-0.0527099
80	0xbdba20fd	-0.09088323
81	0xbe88c352	-0.26711518
82	0xbca27ce4	-0.019834943
83	0xbeacba34	-0.33735812
84	0xbee31a6a	-0.4435609
85	0xbe4c3689	-0.19942679
86	0xbe402c8b	-0.18766992
87	0xbece675c	-0.40313232
88	0x3e682195	0.2266906
89	0xbeec52b5	-0.4615685
90	0x3da32eb9	0.07967896
91	0xbe4c4045	-0.19946392
92	0x3c7762d1	0.015099243
93	0xbc95e726	-0.018298697
94	0xbd12c5b7	-0.035833087
95	0xbe1f0747	-0.1553012
96	0x3c9e85f1	0.019350978
97	0xbdeb9778	-0.115035
98	0xbe40ff1f	-0.18847321
99	0xbd847f71	-0.0646962
100	0xbe208d3c	-0.15678877
101	0xbed37dac	-0.41306818
102	0xbda96e23	-0.0827296
103	0xbe5de5f8	-0.21669757
104	0x3ed03504	0.40665448
105	0x3c9b8f89	0.018989341
106	0xbdc8c9ec	-0.098041385
107	0xbcb86a72	-0.022511695
108	0xbe621eaa	-0.2208201
109	0xbe041c4b	-0.12901418
110	0xbd83bff7	-0.06433099
111	0xbe328d90	-0.17436814
112	0x3d56b610	0.052419722
113	0x3d6682db	0.056277137
114	0xbddbe563	-0.107371114
115	0xbe57e8d5	-0.21084912
116	0xbdbffca6	-0.09374361
117	0xbd75586f	-0.05989879
118	0xbe189a46	-0.149026
119	0xbe7e2882	-0.2482014
120	0x3d884baf	0.066550605
121	0xbea32c16	-0.31869572
122	0x3af43d1b	0.0018633934
123	0xbd4554d8	-0.048176616
124	0xbe71f056	-0.23626837
125	0xbd94af3b	-0.07259985
126	0x3d54dc40	0.05196786
127	0x3dcadd1b	0.09905454

advantage.0.weight f4 [128, 128]
0	0xbdae771a	-0.085188106
1	0xbe03df3b	-0.12878124
2	0xbd7460a4	-0.059662476
3	0xbe1c4e62	-0.15264276
4	0xbdca3dde	-0.098750815
5	0xbe285d63	-0.16441874
6	0x3a42dfe5	0.00074338756
7	0xbc644fb0	-0.013935015
8	0xbd9e008b	-0.07714947
9	0xbdd41d41	-0.10357142
10	0xbdf0b05d	-0.117523886
11	0xbe2d3f5a	-0.16918698
12	0xbd3c749e	-0.046009652
13	0x3d8cdec4	0.06878427
14	0xbdb6dae5	-0.089284696
15	0xbda56809	-0.08076484
16	0xbcf63e8a	-0.030059118
17	0xbd5010ed	-0.05079739
18	0xbe850ceb	-0.25986418
19	0x3c86d93d	0.01646101
20	0x3d122ae8	0.03568545
21	0xbe1ccf55	-0.15313466
22	0xbd872996	-0.06599729
23	0x3c0e11d9	0.008671247
24	0x3c63fbf9	0.013915055
25	0xbd9f5ec7	-0.07781749
26	0xbd8365af	-0.06415879
27	0xbad7d8ea	-0.0016467844
28	0xbd0bca8a	-0.034128703
29	0xbdf186e9	-0.1179331
30	0x3d31d69a	0.04341755
31	0xbdd2878a	-0.10279758
32	0xbb4f155f	-0.0031598432
33	0xbdc2613e	-0.09491204
34	0xbe105e7b	-0.14098541
35	0xbceae692	-0.028674398
36	0x3c73cef9	0.014880889
37	0xbd86aa02	-0.06575395
38	0xbc673e69	-0.014114001
39	0xbc0dc7c6	-0.008653587
40	0xbdac241d	-0.084053256
41	0xbce35dbf	-0.027754663
42	0xbdb40444	-0.08789876
43	0x3d5ffd10	0.0546847
44	0xbd00cb0d	-0.031443644
45	0x3c80c017	0.015716596
46	0x3dc4d28e	0.096104726
47	0xbdd9fa15	-0.106434025
48	0xbd8fd968	-0.07023889
49	0x3d0d952d	0.034566093
50	0xbd04162f	-0.03224772
51	0xbda99ddc	-0.082820624
52	0xbd8ffb53	-0.07030358
53	0xbc4696b1	-0.012120889
54	0x3c84570c	0.016154788
55	0xbc840710	-0.016116649
56	0xbbe7a5e7	-0.0070693376
57	0x3c9a8f5c	0.018867187
58	0xbc70f948	-0.014707871
59	0xbde249a4	-0.11049202
60	0xbd9d53bb	-0.07681986
61	0xbc54d5d4	-0.012990434
62	0xbbc9f23e	-0.0061629107
63	0xbd2aaf33	-0.04167099
64	0x3bfea630	0.007771276
65	0xbc798b17	-0.0152309155
66	0xbd71e806	-0.059059165
67	0xb9cf41ca	-0.00039531133
68	0xbdc1e796	-0.09468
69	0xbdf9a157	-0.12188976
70	0x3cf6577c	0.030071013
71	0xb94a25d5	-0.00019278315
72	0xbdea37d1	-0.114364274
73	0xbd936529	-0.07197029
74	0x3c5b6118	0.013389848
75	0xbde96ab3	-0.113973044
76	0xbd5b8172	-0.053590246
77	0x3d8fb55f	0.07017016
78	0xbd05b1e6	-0.03264036
79	0x3c913878	0.017727122
80	0xbe09424f	-0.13404201
81	0xbd4be04a	-0.049774446
82	0x3db34c6b	0.0875481
83	0x3d99701a	0.07492085
84	0xbe30b10e	-0.17255041
85	0x3d5d1a29	0.053980026
86	0xbcdfafe4	-0.02730555
87	0x3d052d5b	0.032513957
88	0xbe0dc0fc	-0.13843149
89	0xbde6c234	-0.1126751
90	0xbe1747d5	-0.14773495
91	0xbdb15d7a	-0.08660407
92	0xbd939bda	-0.07207461
93	0xbd3bff96	-0.045898043
94	0x3c82d18d	0.015969062
95	0xbbc52f22	-0.0060175816
96	0xbc1bea6a	-0.009516338
97	0xbd5dd0c9	-0.05415419
98	0xbcc355c3	-0.023844605
99	0x3c794c50	0.015215948
100	0xbdb7fdb0	-0.08983934
101	0xbc0495eb	-0.008092384
102	0xbcb705c3	-0.022341615
103	0xbd71cef4	-0.059035257
104	0xbdb552ae	-0.088536605
105	0x3ce23d85	0.027617225
106	0x3bba4ee3	0.0056856736
107	0xbbbf3de5	-0.005836236
108	0xbb4b9531	-0.0031064267
109	0xbda116b9	-0.07865662
110	0xbe23be09	-0.15990461
111	0xbc855489	-0.016275661
112	0x3cc4f050	0.024040371
113	0xbde20ddc	-0.110378
114	0xbd985a4d	-0.074390985
115	0x3cc95baa	0.024579842
116	0xbe0749b8	-0.13211715
117	0xbe35b2af	-0.17743944
118	0x3d54646e	0.05185359
119	0xbcf46576	-0.029833537
120	0xbd64c5a7	-0.05585256
121	0xbcdea4fe	-0.027178284
122	0xba8d50d2	-0.0010781533
123	0xbaebd752	-0.0017993248
124	0xbd002cc1	-0.03129268
125	0xbccf7270	-0.025323123
126	0x3ccf17f4	0.025279976
127	0xbd69251c	-0.056920156
128	0x3e10cba9	0.1414019
129	0x3b63966c	0.003472711
130	0xbd86310a	-0.06552322
131	0x3ac58e01	0.0015072228
132	0xbd8a3607	-0.06748586
133	0xbd6bd485	-0.05757572
134	0x3f2220bb	0.6333119
135	0x3d884a31	0.06654776
136	0x3df661e6	0.120303914
137	0xbe178bd4	-0.14799434
138	0xbe44014b	-0.19141118
139	0xbda0cd9f	-0.07851719
140	0x3c5d7f00	0.013519049
141	0xbd4aab5e	-0.049479835
142	0x3c95c676	0.01828311
143	0x3db19e5b	0.08672782
144	0x3ce5f49e	0.028070744
145	0xbcda600d	-0.026657129
146	0x3d08a651	0.033361737
147	0x3ea3be30	0.3198104
148	0x3d3ab934	0.04558678
149	0x3d010be1	0.03150547
150	0xbd309607	-0.043111827
151	0xbd21bf78	-0.03948924
152	0x3da86535	0.08222429
153	0x3cae4ef8	0.02127789
154	0xbe3d590f	-0.18491004
155	0x3df958d6	0.12175147
156	0x3e8a6b21	0.27034858
157	0x3da06ea8	0.07833606
158	0xbdbc693f	-0.091997616
159	0x3c8d2ab3	0.017232275
160	0x3b57fabb	0.0032955843
161	0x3d97ec7d	0.074181534
162	0xbe1956df	-0.14974545
163	0xbd83f563	-0.06443288
164	0xbe797caa	-0.24363962
165	0x3dd8a398	0.10578078
166	0xbcc269c9	-0.023732083
167	0x3e45be9a	0.1931099
168	0xbdb7396c	-0.08946499
169	0xbe06accb	-0.13151853
170	0x3d829560	0.06376147
171	0xbc7ee950	-0.015558556
172	0xbb37bfe0	-0.002803795
173	0xbddeb162	-0.10873677
174	0xbe2e8770	-0.17043853
175	0xbd4284d1	-0.047489945
176	0x3f221567	0.6331391
177	0xbda45942	-0.08024837
178	0x3daa8ae3	0.08327272
179	0x3da18a26	0.07887678
180	0x3de6a37f	0.11261653
181	0x3d863f4a	0.0655504
182	0x3e7f51f8	0.24933612
183	0xbd9b112f	-0.07571637
184	0xbf048ea5	-0.5178016
185	0x3ebaf884	0.36517727
186	0xbe1b333f	-0.15156268
187	0xbda81ddc	-0.0820882
188	0xbd19a7d5	-0.037513573
189	0xbd9066da	-0.070508674
190	0x3d8d11ef	0.06888186
191	0x3dad198c	0.08452138
192	0xbd59d270	-0.053179204
193	0x3e7a872d	0.24465628
194	0xbda10067	-0.07861405
195	0x3f1bbc27	0.6083397
196	0x3de6b638	0.11265224
197	0x3b4bd834	0.003110421
198	0x3de2dffc	0.11077878
199	0xbe23c99a	-0.15994874
200	0x3d428832	0.047493167
201	0xbe528bf8	-0.20561206
202	0x3e0b764d	0.13619347
203	0xbec40919	-0.3828819
204	0xbe353d9b	-0.17699282
205	0x3c0f3d93	0.008742708
206	0x3c14955e	0.009068815
207	0xbdc42d18	-0.095789135
208	0xbd6d293f	-0.057900663
209	0xbcdcff45	-0.02697719
210	0xbcb43cb2	-0.022001598
211	0x3d8a4322	0.06751086
212	0xbe8703d6	-0.26370114
213	0xbd7072a5	-0.058703084
214	0x3ca4370e	0.020045783
215	0x3ce6f4e3	0.028192943
216	0x3f14ded4	0.5815251
217	0xbee971d5	-0.4559466
218	0xbce3261a	-0.02772813
219	0xbce021fa	-0.027359951
220	0xbd35c942	-0.044381388
221	0xbd213942	-0.039361246
222	0xbdf81c62	-0.121147886
223	0xbde5d366	-0.11221962
224	0x3e04106d	0.12896891
225	0x3d99e70a	0.0751477
226	0x3d09b4ac	0.033619568
227	0xbc29f488	-0.010373242
228	0xbe07554f	-0.13216136
229	0xbe392372	-0.18079928
230	0xbd9001af	-0.07031571
231	0xbe496db0	-0.19670749
232	0xbe06f401	-0.13179018
233	0x3e3f1cb8	0.18663299
234	0xbca3aed0	-0.019980818
235	0xbe1f8db6	-0.15581402
236	0xbdab3f04	-0.08361629
237	0x3d242f7c	0.040084347
238	0xbe7ad586	-0.24495515
239	0xbd2ef09d	-0.042709935
240	0x3d89e1af	0.06732499
241	0x3f1373db	0.57598656
242	0x3c9d7b4c	0.019223832
243	0xbe17dbef	-0.14829992
244	0x3c9b8147	0.018982543
245	0xbd1fec48	-0.039043695
246	0xbc819010	-0.015815765
247	0x3bd181c4	0.006393643
248	0x3e125600	0.14290619
249	0xbe0782fd	-0.13233562
250	0x3e148034	0.1450203
251	0xbc8d29bb	-0.017231813
252	0x3de30758	0.11085385
253	0xbe1ade1a	-0.15123788
254	0xbcaa8958	-0.020817444
255	0x3d47180e	0.048606925

advantage.0.bias f4 [128]
0	0xbe7dc889	-0.2478353
1	0x3f147a32	0.57998955
2	0xbd04aac1	-0.032389406
3	0xbe21886d	-0.15774699
4	0xbe78e304	-0.2430535
5	0xbe41a914	-0.18912154
6	0xbddd756b	-0.10813411
7	0x3f1b530f	0.6067361
8	0xbc707175	-0.014675488
9	0xbdf402fa	-0.1191463
10	0xbd45f99c	-0.04833375
11	0xbe0b2dc5	-0.13591678
12	0xbe115f82	-0.1419659
13	0x3c1348f0	0.008989558
14	0xbeae11b4	-0.3399788
15	0xbe057502	-0.13032916
16	0x3f3adc18	0.72992086
17	0xbdd26ac2	-0.10274269
18	0x3f048417	0.51764053
19	0x3f5f7c5c	0.8729913
20	0xbe06b8dd	-0.13156457
21	0x3ea4987d	0.3214759
22	0xbeb088f2	-0.3447948
23	0xbd240bd7	-0.040050354
24	0xbe641c7b	-0.2227649
25	0x3f1fdb86	0.6244434
26	0x3f3e6a49	0.7438093
27	0x3e9f976a	0.31170207
28	0xbe33c170	-0.1755426
29	0x3f308489	0.6895223
30	0xbdfa8df6	-0.12234108
31	0x3f1cdcdd	0.6127451
32	0x3f3cc50b	0.73738164
33	0xbe90c740	-0.28277016
34	0xbd774ba8	-0.060374886
35	0x3dfd052b	0.12354501
36	0x3ea7bb64	0.32760155
37	0xbdb2ea9b	-0.08736154
38	0x3f43e154	0.765157
39	0x3e401626	0.18758449
40	0xbd69354e	-0.0569356
41	0x3e6f9fe5	0.23400839
42	0x3dfb09c6	0.122577235
43	0xbe76c92a	-0.24100175
44	0x3d5bf2bb	0.053698283
45	0xbe27a33d	-0.16370864
46	0x3e754f09	0.23955931
47	0xbe098a51	-0.1343167
48	0xbd80040f	-0.06250774
49	0xbec6007c	-0.38672245
50	0x3e8bdc0d	0.27316323
51	0x3d9662f9	0.07343096
52	0x3cf8a524	0.030352183
53	0xbd891906	-0.06694226
54	0x3f247662	0.6424314
55	0x3d8a40a3	0.0675061
56	0xbe76c11a	-0.240971
57	0x3f1cd535	0.6126283
58	0xbd72328a	-0.05913023
59	0x3ee12b31	0.43978265
60	0x3f0a67d3	0.54064673
61	0xbd8d69f3	-0.06904974
62	0xbe59fad3	-0.21287088
63	0xb9e880eb	-0.0004434654
64	0xbe55874b	-0.20852391
65	0xbd0415a2	-0.032247193
66	0xbf232e83	-0.63742846
67	0xbe1c2b25	-0.15250833
68	0xbc820944	-0.015873559
69	0x3f6c10dd	0.9221323
70	0xbe3dc99a	-0.18533936
71	0xbdae62bf	-0.08514928
72	0xbd4fe635	-0.050756652
73	0x3da4a2d1	0.08038867
74	0x3e8b0340	0.27150917
75	0xbeb696ab	-0.35661826
76	0x3e713c3e	0.23558137
77	0x3f442948	0.7662549
78	0xbeb30f3c	-0.3497256
79	0x3e3b8882	0.18313792
80	0xbe2771a9	-0.16351952
81	0x3e3bb5dd	0.18331094
82	0xbe471595	-0.19441827
83	0xbe308c58	-0.17241037
84	0xbe053a72	-0.13010576
85	0xbe976d35	-0.29575506
86	0xbd46fc16	-0.04858025
87	0xbd0eba6d	-0.03484576
88	0xbe0c6b02	-0.13712695
89	0xbe5edd51	-0.21764113
90	0xbef0a481	-0.47000507
91	0xbe874610	-0.2642064
92	0x3da0aff0	0.078460574
93	0x3f4e44c1	0.8057366
94	0x3a2805b4	0.0006409541
95	0xbbfb78f7	-0.0076743322
96	0x3e9b0a59	0.30281332
97	0x3eede07c	0.4646033
98	0x3f044119	0.5166183
99	0xbdca2876	-0.098709986
100	0x3f699e76	0.9125742
101	0x3f37a5f6	0.7173761
102	0x3eff834c	0.4990486
103	0xbd8abca6	-0.06774263
104	0xbe4bebd6	-0.19914183
105	0x3f332f9b	0.69994515
106	0x3effeb74	0.49984324
107	0x3ea1fb59	0.31637076
108	0xbd70fcde	-0.058834903
109	0xbc19317e	-0.009350179
110	0xbe964fbb	-0.29357705
111	0xbf2070f8	-0.62672377
112	0xbe69f2e8	-0.22846568
113	0xbd20d18f	-0.03926235
114	0xbdd61a7f	-0.104542725
115	0xbd9c48de	-0.07631086
116	0x3d33b12e	0.043870144
117	0xbd948d60	-0.07253528
118	0x3e1fae67	0.15593873
119	0x3f48ce48	0.7843976
120	0xbc86fdda	-0.016478468
121	0x3dd6cc3c	0.10488173
122	0xbe14486f	-0.14480756
123	0x3d92b999	0.07164306
124	0xbe8e5c1a	-0.27804643
125	0x3ee3ec0a	0.4451602
126	0xbc8952f8	-0.016763195
127	0x3ecd8f6b	0.40148482

advantage.2.weight f4 [5, 128]
0	0x3d1ebb75	0.03875299
1	0xbf0ec14e	-0.5576371
2	0x3aafc5e6	0.0013410419
3	0x3cfd862b	0.030947765
4	0xbe159118	-0.1460613
5	0xbe283fb8	-0.16430557
6	0xbdb3dc68	-0.087822735
7	0xbf8c7981	-1.097458
8	0xbe12431c	-0.14283413
9	0xbd17d4d7	-0.037068214
10	0x3bb50919	0.005524766
11	0x3cfefdc5	0.031126866
12	0xbcfd5eba	-0.030928958
13	0x3bdcaf61	0.006734774
14	0xbd6f1bf1	-0.058376256
15	0xbc3fc5bc	-0.011704858
16	0xbdc1fcf3	-0.09472074
17	0xbe31a521	-0.17348148
18	0xbecef730	-0.40422964
19	0xbee0461f	-0.43803498
20	0xbd959374	-0.07303515
21	0xbde3591b	-0.1110098
22	0xbce5d201	-0.02805424
23	0xbc160afd	-0.009157893
24	0x3d60b736	0.054862224
25	0xbf1ca798	-0.6119323
26	0xbd9965fc	-0.07490155
27	0xbe554e22	-0.20830587
28	0xbd962801	-0.07331849
29	0xbee237eb	-0.44183287
30	0x3e1e8b08	0.15482724
31	0xbeef941b	-0.46792683
32	0x3d0f98d8	0.035057873
33	0xbe9535b8	-0.29142547
34	0x3cb922d8	0.022599623
35	0xbc0d0f5b	-0.008609618
36	0xbe077aac	-0.1323039
37	0x3c898997	0.01678924
38	0xbc7c0222	-0.015381368
39	0xbeb4141a	-0.35171586
40	0xbe37a621	-0.17934467
41	0xbe889fc0	-0.2668438
42	0xbe7df65b	-0.24801008
43	0xbda309e3	-0.0796087
44	0x3c7b4ffd	0.015338895
45	0xbd8ab695	-0.06773106
46	0xbdc204a9	-0.09473545
47	0x3d2ea7b5	0.042640407
48	0x3d78310e	0.060593657
49	0x3d84958c	0.06473836
50	0xbe4b2fc5	-0.19842441
51	0x3d124802	0.035713203
52	0x3c1769f8	0.0092415735
53	0x3dd88eb0	0.105740905
54	0xbefb3767	-0.49065706
55	0xbcb5cc9a	-0.022192288
56	0x3e22fbee	0.15916416
57	0xbf808b83	-1.0042576
58	0xbebbabdf	-0.36654565
59	0xbe913ea6	-0.2836811
60	0xbf1c2856	-0.6099905
61	0xbdc4f320	-0.09616685
62	0xbdc0e094	-0.09417835
63	0x3b8dada5	0.0043236786
64	0x3e40e09e	0.18835685
65	0x3ccbc44e	0.024873879
66	0xbdeb78d7	-0.11497658
67	0xbdc7fbfb	-0.09764858
68	0xbd2378a0	-0.03990996
69	0xbce6dbe1	-0.028181018
70	0x3d9c663a	0.07636686
71	0x3d879acd	0.06621323
72	0xbe22ed55	-0.15910847
73	0xbcbb4cd6	-0.022863787
74	0x3c0774ea	0.008267621
75	0xbc6c6864	-0.014429186
76	0xbd8533f6	-0.065040514
77	0xbf123fd2	-0.5712863
78	0xbca5b1ee	-0.020226445
79	0xbf42ae60	-0.76047325
80	0x3c37fa69	0.011229136
81	0xbe625fa1	-0.22106792
82	0xbc576d70	-0.0131486505
83	0x3ccf26ec	0.025287114
84	0x3c8332c1	0.016015412
85	0xbce8df2e	-0.028426733
86	0xbbeb2cbc	-0.0071769636
87	0xbd5e7fab	-0.054320972
88	0x3c85a229	0.016312676
89	0x3be1ecf8	0.006894704
90	0x3de07f8b	0.10961827
91	0xbe4f11c0	-0.20221615
92	0xbd0bc694	-0.034124926
93	0xbf260f61	-0.64867216
94	0xbce28175	-0.02764962
95	0x3d4f2b55	0.050578434
96	0xbe25a05b	-0.16174452
97	0xbe2e49b4	-0.17020303
98	0xbe9ee30e	-0.31032604
99	0xbcbdbb02	-0.023160461
100	0xbeb56d50	-0.3543496
101	0xbe8f6682	-0.28007895
102	0xbf736382	-0.9507371
103	0xbe03d6a2	-0.12874845
104	0xbb978427	-0.004623908
105	0xbf0cf9e7	-0.5506882
106	0xbf54d3ae	-0.831355
107	0xbded90eb	-0.115999065
108	0xbd1bbd4c	-0.038022324
109	0xbd1eec47	-0.03879955
110	0x3bf10b83	0.0073561086
111	0x3d4bfbca	0.04980067
112	0xbdea1b9f	-0.114310496
113	0xbca28ffc	-0.019844048
114	0x3cd746ed	0.026278937
115	0xbe06e8cd	-0.13174744
116	0xbc06024a	-0.008179257
117	0x3cc50c13	0.024053609
118	0xbe458974	-0.19290715
119	0xbe41538f	-0.18879531
120	0x3a8fefc0	0.0010981485
121	0xbe23def8	-0.16003025
122	0xbd74fd03	-0.059811603
123	0xbea00f5e	-0.31261724
124	0x3e18213a	0.14856425
125	0xbdfacbe7	-0.122459225
126	0xbce4a6f6	-0.027911644
127	0xbe962c09	-0.2933047
128	0x3c9e5082	0.019325498
129	0xbf156ca5	-0.58368903
130	0xbd924b66	-0.07143287
131	0xbb9397f4	-0.004504198
132	0xbd8dc7d1	-0.069228776
133	0xbc8f8f07	-0.017524255
134	0xbd940c04	-0.07228854
135	0xbd657d68	-0.0560278
136	0x3de4f755	0.11179987
137	0x3d5018f1	0.050805036
138	0xbd58bad3	-0.052912544
139	0x3e004099	0.12524642
140	0xbd2b7d1b	-0.041867357
141	0xbc6429a6	-0.013925945
142	0xbcf1f393	-0.02953509
143	0x3d59ec4f	0.053203877
144	0x3edee0b2	0.43530804
145	0xbea149de	-0.3150167
146	0x3da7c837	0.08192485
147	0x3f0f713f	0.56032175
148	0xbdd66464	-0.10468367
149	0x3e1f5ae3	0.15562014
150	0xbd853598	-0.06504363
151	0xbc5fbf07	-0.013656384
152	0x3b3c0632	0.0028690216
153	0x3ec6f137	0.38855907
154	0x3f3126e2	0.69199955
155	0xbd11604a	-0.03549222
156	0xbdef29e5	-0.116779126
157	0xbd8cd663	-0.068768285
158	0x3e7028a6	0.23453006
159	0x3e101d01	0.14073564
160	0x3d2120dd	0.03933798
161	0xbe79dea0	-0.24401331
162	0xbd22e4d1	-0.039768998
163	0x3d36607c	0.04452561
164	0x3e2450e5	0.16046484
165	0xbdb4c905	-0.08827404
166	0xbcebca9a	-0.028783131
167	0xbee052a4	-0.4381305
168	0xbeab3400	-0.3343811
169	0xbcc6cf5c	-0.024268799
170	0x3d8b8ea3	0.06814315
171	0xbe29acb7	-0.16569792
172	0xbda568ea	-0.080766514
173	0xbbaddaef	-0.00530564
174	0x3df2a5f4	0.11848059
175	0xbd9b0eda	-0.07571192
176	0xbdffd1c1	-0.12491179
177	0xbd66b6a9	-0.056326542
178	0x3d945c30	0.07244146
179	0xbcf9b645	-0.03048242
180	0xbbdf96d0	-0.006823398
181	0x3da37889	0.07981975
182	0xbe9e4d4f	-0.30918357
183	0xbc9a943c	-0.018869512
184	0x3d94af6d	0.07260022
185	0xbef69f9c	-0.48168647
186	0x3eea5b1d	0.4577264
187	0x3b8c5a37	0.0042832154
188	0xbe54cc2d	-0.20781012
189	0xbdec0ede	-0.11526273
190	0xbdf48e39	-0.11941189
191	0x3d3a73f7	0.04552075
192	0x3dac84ef	0.084237926
193	0xbd1a760d	-0.03771024
194	0xbd2d5e76	-0.042326413
195	0x3df1dc6a	0.11809619
196	0xbc01ecc4	-0.0079299845
197	0xbb1fac0e	-0.0024364027
198	0xbddcdd63	-0.10784414
199	0xba4cb61f	-0.00078091206
200	0xbde9ad68	-0.11410028
201	0x3e616f1f	0.22015046
202	0x3dc61326	0.09671621
203	0x3de1ed5e	0.11031602
204	0xbd58a541	-0.052891973
205	0x3b82cb95	0.003991554
206	0x3d3058f3	0.04305358
207	0x3de2e707	0.11079221
208	0x3e243643	0.16036324
209	0x3b38d311	0.0028201977
210	0x3d9a94b6	0.075478956
211	0xbdb0a098	-0.08624381
212	0xbb977dfb	-0.0046231723
213	0x3d5068d7	0.050881233
214	0xbdba12c0	-0.090856075
215	0xbdf40c0e	-0.11916362
216	0x3c971b2f	0.01844558
217	0xbd425e64	-0.0474533
218	0xbe4933ab	-0.19648616
219	0x3e0cc191	0.13745715
220	0xbda33ca7	-0.07970553
221	0xbe195520	-0.14973879
222	0xbdcffff0	-0.10156238
223	0xbcb7e20f	-0.02244666
224	0xbcc8e227	-0.0245219
225	0xbd9d5482	-0.07682134
226	0xbd4668fb	-0.04843996
227	0xbd9fd00c	-0.07803354
228	0x3f30fe53	0.6913807
229	0xbda80f06	-0.082059905
230	0x3e225d8f	0.15856002
231	0x3be645a8	0.0070273466
232	0xbdf5fdab	-0.12011274
233	0x3e1087d6	0.14114317
234	0xbe7dd318	-0.24787557
235	0xbe736f9a	-0.23773041
236	0x3d1eb724	0.038748875
237	0xbd837602	-0.064189926
238	0x3e4b1e68	0.19835818
239	0xbf08ef02	-0.53489697
240	0xbd75ff20	-0.06005776
241	0xbdb5ed44	-0.088831455
242	0xbda9c53c	-0.082895726
243	0x3b9d0072	0.004791313
244	0xbd090f74	-0.033462003
245	0x3cbf89ab	0.023381075
246	0x3d3733e0	0.044727206
247	0x3f3a5d3c	0.72798514
248	0xbd90ec56	-0.070763275
249	0x3d19a210	0.03750807
250	0x3c84136a	0.016122539
251	0x3d648725	0.055792946
252	0x3da38df9	0.079860635
253	0xbcbb4b4d	-0.022863055
254	0x3e0d9686	0.13826951
255	0xbe2a973e	-0.16659257

advantage.2.bias f4 [5]
0	0xc00a3a1d	-2.159797
1	0xbeba1390	-0.3634305
2	0x3f070b80	0.5275192
3	0x3ef1f802	0.47259527
4	0x3da9cea2	0.08291365

value.0.weight f4 [128, 128]
0	0xbde61ea0	-0.1123631
1	0xbd348828	-0.04407516
2	0x3d00a17c	0.031404004
3	0xbd86fab6	-0.06590788
4	0x3e229f35	0.15881045
5	0xbe3d7f17	-0.18505512
6	0xbca6791c	-0.020321421
7	0x3d88a6e5	0.066724576
8	0x3dd63789	0.10459811
9	0xbda8d1f1	-0.08243168
10	0xbee8a5d4	-0.45439017
11	0x3efa8d07	0.4893572
12	0x3e1171a7	0.14203511
13	0xbcaafb24	-0.020871706
14	0x3da396e6	0.07987766
15	0xbd70338f	-0.05864292
16	0xbcbeea28	-0.023305014
17	0x3d7b057a	0.06128452
18	0xbca9dd50	-0.020735413
19	0x3de72fd4	0.11288419
20	0x3da743f5	0.08167259
21	0xbed81e32	-0.42210537
22	0xbd60b846	-0.054863237
23	0xbd216815	-0.0394059
24	0x3e660a8e	0.22464964
25	0xbd45b4e4	-0.048268214
26	0xbc61dc13	-0.01378538
27	0xbd74ce68	-0.059767157
28	0xbdcb1470	-0.099160075
29	0x3da85ce8	0.082208455
30	0xbd82a62e	-0.063793525
31	0x3e813da3	0.25242338
32	0x3d8aa5c3	0.06769898
33	0x3de16ba8	0.11006862
34	0x3f3e609e	0.74366176
35	0x3b562440	0.0032675415
36	0x3cd59d89	0.026076095
37	0xbe04d125	-0.12970407
38	0x3cc42f48	0.023948327
39	0xbbad4dbe	-0.0052888086
40	0x3caac4f7	0.020845873
41	0x3d5e5cb6	0.054287635
42	0xba208900	-0.000612393
43	0xbccf0784	-0.025272138
44	0x3da8cc7f	0.082421295
45	0xbcf5864b	-0.029971262
46	0xbd262a73	-0.040567826
47	0x3e8692dc	0.2628392
48	0x3d34d91b	0.04415236
49	0xbb59a200	-0.0033208132
50	0x3d109790	0.03530079
51	0xbcbcc6dc	-0.023044042
52	0xbc5c98d0	-0.013464168
53	0x3d212cb6	0.03934928
54	0x3e025efc	0.12731546
55	0x3d838451	0.06421722
56	0xbdf7bc94	-0.12096515
57	0x3f004ccd	0.5011719
58	0xbd5a37d6	-0.053275906
59	0x3e966078	0.29370475
60	0x3c264b18	0.01014974
61	0xbd87c62e	-0.06629597
62	0xbd61b6d2	-0.05510599
63	0xbd80f716	-0.06297128
64	0xbd61df6a	-0.055144705
65	0x3e27b144	0.16376215
66	0xbba73dfc	-0.0051038247
67	0xbe8d94a2	-0.2765246
68	0x3dad8e47	0.08474403
69	0xbe0f2df8	-0.1398238
70	0xbe081826	-0.13290462
71	0xbb0e52b3	-0.0021716773
72	0xbce36792	-0.027759347
73	0xbd0e6de5	-0.034772772
74	0x3e7fe9a8	0.24991477
75	0xbe673883	-0.22580151
76	0xbdb4e998	-0.08833617
77	0xbd80c31b	-0.062872134
78	0xbc2dd958	-0.010610901
79	0xbdca2df6	-0.098720476
80	0xbdadd069	-0.08487017
81	0xbdc84d02	-0.09780313
82	0xbd8ea9c5	-0.06965975
83	0xbce11874	-0.02747748
84	0x3e90ce62	0.28282458
85	0xbd1ed8fe	-0.03878116
86	0x3cd2cb84	0.02573181
87	0xbbbcf7f0	-0.005766861
88	0x3ceed621	0.029154839
89	0xbf0253d6	-0.50909173
90	0x3b7a8fc0	0.0038232654
91	0xbdb2356b	-0.08701595
92	0xbd7b0752	-0.061286278
93	0xbd57c6d2	-0.052679844
94	0x3d854162	0.065066114
95	0x3c590e08	0.013247974
96	0x3c4b5d88	0.012412436
97	0x3e400f4f	0.1875584
98	0x3d63e9f2	0.05564303
99	0xba710100	-0.00091935694
100	0xbd73c94f	-0.059518155
101	0xbb02379c	-0.0019869572
102	0x3e3eeaf2	0.18644312
103	0x3b3e4575	0.0029033099
104	0xbe7c0865	-0.24612577
105	0x3c5b1752	0.013372259
106	0xbdaa2049	-0.08306939
107	0x3e000264	0.12500912
108	0x3b7d9fe4	0.0038700039
109	0xbd9143f6	-0.07093041
110	0xbe85d333	-0.26137695
111	0x3defca51	0.11708511
112	0xbd84e90b	-0.06489762
113	0x3c5be91c	0.013422277
114	0xbdce212f	-0.10064923
115	0x3cb408be	0.021976825
116	0xbd8e4c0e	-0.069481
117	0x3c91faa3	0.017819708
118	0xbd9bbbb8	-0.07604164
119	0xbdfe0d0d	-0.12404833
120	0x3d902c3a	0.070396855
121	0x3ba622d0	0.005070068
122	0x3e2fedb9	0.17180528
123	0x3dd1afa5	0.1023858
124	0x3ef9c8fa	0.48786145
125	0xbeeb3a9b	-0.4594315
126	0xbce8f2ee	-0.02843615
127	0xbd4e51cb	-0.050370973
128	0x3cfb8f4b	0.030707976
129	0xbc9ba123	-0.018997734
130	0xbc834d28	-0.016028002
131	0xbd8bc2b6	-0.068242475
132	0xbcb8d97d	-0.022564644
133	0xbd545e58	-0.051847786
134	0xbdf2625f	-0.11835169
135	0xbd89fe8c	-0.06738004
136	0xbd7d6890	-0.061867297
137	0xbcb90a97	-0.022588057
138	0xbe722ef8	-0.2365073
139	0xbcf7487d	-0.030185932
140	0xbc8e817e	-0.017395731
141	0x3de46c17	0.11153429
142	0x3ccc7b75	0.024961213
143	0xbd9c18fc	-0.07621953
144	0x3d29bf2e	0.04144209
145	0xbdafdf1e	-0.08587478
146	0xbd1f9e73	-0.03896947
147	0xbdc82f92	-0.09774698
148	0x3d6ae786	0.057349704
149	0xbe6ccd45	-0.23125179
150	0xbd9e872e	-0.07740627
151	0xbd8bf52a	-0.06833871
152	0xbba66da0	-0.0050789863
153	0xbd106fc3	-0.035262834
154	0x3ba25817	0.004954349
155	0x3d21f587	0.039540794
156	0xbd82620d	-0.06366358
157	0xbd02a3d1	-0.03189451
158	0x3d41e18b	0.047334235
159	0xbe1ee8fc	-0.15518564
160	0x3c052c5a	0.00812825
161	0xbe0706ac	-0.13186139
162	0x3d223a69	0.039606486
163	0x3d1fc4f1	0.039006177
164	0xbccaa707	-0.024737848
165	0xbdece8ac	-0.11567816
166	0xbcdfa217	-0.02729897
167	0xbdecb8b2	-0.11558665
168	0xbd2d0068	-0.042236716
169	0xbd941d18	-0.07232112
170	0x3d0227ba	0.031776167
171	0xbc714f27	-0.014728344
172	0x3d7e9a42	0.06215883
173	0xbd7c22c1	-0.06155658
174	0x3cc278c3	0.023739224
175	0x3b6ed7df	0.0036444587
176	0xbbf44303	-0.0074542775
177	0xbde24e53	-0.110500954
178	0x3c49a06f	0.012306317
179	0xbc88cf42	-0.01670039
180	0x3c82ab15	0.015950719
181	0xbdbfbf22	-0.093626276
182	0xbdf2cdd8	-0.11855668
183	0xbdc6822a	-0.096927956
184	0xbcce321a	-0.025170375
185	0xbd88183f	-0.066452496
186	0xbe05c783	-0.13064389
187	0x3c91198d	0.017712379
188	0x3dae2335	0.08502809
189	0x3d0fc044	0.03509547
190	0x3b08a14a	0.002084809
191	0xbe10f58e	-0.14156172
192	0x3b0b7076	0.0021276749
193	0xbc9d4031	-0.019195648
194	0x3d23f7ba	0.040031172
195	0xbdfaf930	-0.1225456
196	0x3d3df917	0.04638013
197	0xbac13e4c	-0.0014743297
198	0xbdfb08e5	-0.12257556
199	0xbc05ba33	-0.008162069
200	0x3cb907c7	0.022586716
201	0xbca0bb21	-0.01962048
202	0xbdb39c50	-0.087700486
203	0xbebb6746	-0.3660223
204	0xbc3186f6	-0.0108354
205	0x3d2661e0	0.040620685
206	0xbc8de0fd	-0.017319197
207	0xbd2e7ef2	-0.042601533
208	0xbda878b7	-0.082261495
209	0xbb8f76e0	-0.0043781847
210	0xbdaca2b5	-0.084294714
211	0xbddce539	-0.10785908
212	0x3dc905a3	0.09815528
213	0xbda60fac	-0.08108458
214	0xbcf81867	-0.030285073
215	0xbd1fdf3d	-0.039031256
216	0xbdae6b90	-0.0851661
217	0xbe50299f	-0.20328377
218	0xbd8dd71f	-0.06925797
219	0xbd2a0101	-0.041504864
220	0x3ca4b528	0.020105913
221	0xbdb2a1f4	-0.08722296
222	0x3d7e281f	0.06204998
223	0xbd59c078	-0.053162068
224	0xbd5fd4d0	-0.054646313
225	0xbdcb4d72	-0.09926881
226	0x3c83e8ea	0.016102273
227	0x3d555b26	0.05208888
228	0x3d4e93e9	0.050434027
229	0xbd7fd546	-0.062459253
230	0xbbcf65e0	-0.006329283
231	0xbb3cc497	-0.00288037
232	0xbd5056c4	-0.050863996
233	0x3d3d8bb4	0.04627581
234	0x3d9a0108	0.07519728
235	0xbd273e91	-0.040831152
236	0xbdf5bbc1	-0.11998702
237	0xbd767c0c	-0.060176894
238	0xbd92f59b	-0.07175752
239	0xbd798d52	-0.06092579
240	0x3cea83b0	0.028627247
241	0xbada1a03	-0.0016639832
242	0xbdbdb48a	-0.09262951
243	0xbb7f06e5	-0.0038914022
244	0xbd1fa7c1	-0.038978342
245	0xbb50a5c3	-0.0031837083
246	0x3d4812da	0.048846103
247	0x3d929bda	0.071586326
248	0xbc197611	-0.009366528
249	0x3c4697a8	0.012121119
250	0xbd145c66	-0.03622093
251	0xbccbddf4	-0.024886109
252	0x3c0268d7	0.007959566
253	0xbdd83913	-0.10557761
254	0xbdadb6eb	-0.084821545
255	0xbd9b952c	-0.07596812

value.0.bias f4 [128]
0	0xbeda1928	-0.42597318
1	0xbe275d2e	-0.16344139
2	0x3fd034ca	1.626611
3	0xbdf0e372	-0.11762132
4	0xbca5e9de	-0.020253118
5	0xbdbf6f10	-0.09347355
6	0x3c5dc184	0.013534907
7	0x3e6462f3	0.22303371
8	0xbdcdb96b	-0.10045131
9	0xbe224864	-0.15847927
10	0xbd6d49f6	-0.057931863
11	0x3de8d14d	0.11368046
12	0xbe4b8e37	-0.1987847
13	0xbdccac8d	-0.09993849
14	0xbeb29866	-0.34881896
15	0xbeff9467	-0.4991791
16	0x3dc2f98d	0.09520254
17	0xbe0cdb32	-0.13755491
18	0x3b45de0f	0.0030192172
19	0xbdcaf7d0	-0.09910548
20	0x3d7d6ff3	0.06187434
21	0x3d687d00	0.056759834
22	0xbd7bde4f	-0.061491307
23	0xbc1c9169	-0.009556153
24	0xbe75bd00	-0.23997879
25	0xbe3376f0	-0.1752584
26	0xbd2330dc	-0.039841518
27	0xbef7bf9c	-0.48388374
28	0xbc8db8ae	-0.017299976
29	0xbd07ac94	-0.033123568
30	0xbe050a79	-0.12992276
31	0xbd917e08	-0.07104117
32	0xbda5c6c1	-0.0809455
33	0xbd834206	-0.06409077
34	0xbe1535b4	-0.14571267
35	0xbd0d85ee	-0.034551553
36	0x3f8133a3	1.0093883
37	0xbd508324	-0.050906315
38	0x3d04e183	0.032441627
39	0xbd508463	-0.050907504
40	0xbd931e20	-0.0718348
41	0x3d47bed4	0.048765972
42	0xbea5f60a	-0.32414275
43	0x3f004a84	0.501137
44	0xbdf6951a	-0.120401576
45	0xbe852f60	-0.26012707
46	0xbecc498d	-0.39899865
47	0xbea60677	-0.32426807
48	0x3ec7e32e	0.39040512
49	0x3fcf3059	1.618663
50	0xbe275031	-0.16339184
51	0x400265b9	2.0374587
52	0xbebdb5f7	-0.3705289
53	0x3ffcd14e	1.9751375
54	0xbe0c0345	-0.13673122
55	0x3d2f006d	0.042725015
56	0xbd8f8233	-0.070072554
57	0xbeaa2329	-0.3322995
58	0xbebf69b8	-0.37385345
59	0xbe0f5b43	-0.13999657
60	0xbd90e3c7	-0.07074695
61	0xbe872f7d	-0.26403418
62	0xbde06f0d	-0.10958681
63	0x3d5b3ea4	0.053526536
64	0xbd846b5a	-0.06465788
65	0x3b765f7f	0.0037593541
66	0xbdf43ae8	-0.11925298
67	0xbd0e2fee	-0.034713678
68	0x3e8f0807	0.27935812
69	0xbda4e7c6	-0.0805202
70	0xbe21d7c3	-0.15804963
71	0xbe6e1a0c	-0.23252124
72	0x3e1bca55	0.15213902
73	0xbe8c9b2e	-0.27462143
74	0xbd94bbcb	-0.07262381
75	0xbdc3e2fc	-0.09564778
76	0xbeaecbbb	-0.3413981
77	0xbed71030	-0.42004538
78	0xbcd07bfd	-0.025449747
79	0xbd3347e7	-0.043769743
80	0xbd1134bd	-0.035450686
81	0x3b8c7ffe	0.004287719
82	0xbdff585c	-0.12468025
83	0x3d481e87	0.04885724
84	0xbe25aee0	-0.16179991
85	0xbd9d82e0	-0.07690978
86	0xbdc09e99	-0.0940525
87	0x3d75cbf5	0.06000896
88	0xbe30c2e2	-0.17261842
89	0xbd61e697	-0.05515155
90	0xbca1b90b	-0.019741556
91	0xbc7c363f	-0.015393793
92	0xbdadeb0c	-0.08492097
93	0xbc88d61b	-0.016703656
94	0xbe18cd8b	-0.14922158
95	0x3c29b635	0.010358383
96	0x4006dc9c	2.107215
97	0xbe09da4b	-0.13462178
98	0xbd1e5fee	-0.038665704
99	0x3f607d3e	0.87691104
100	0x3a030db8	0.00049992977
101	0x3facdd36	1.3505008
102	0xbce27647	-0.02764429
103	0xbe54d3a4	-0.2078386
104	0xbe893cc6	-0.2680418
105	0x3eb4641d	0.3523263
106	0xbe4bf863	-0.19918971
107	0xbdbe241f	-0.09284233
108	0xbee02fed	-0.43786564
109	0xbe1eb7d2	-0.1549981
110	0xbe78e58e	-0.24306318
111	0xbd303f79	-0.043029282
112	0xbe814d29	-0.2525418
113	0xbd4ead3b	-0.050458174
114	0x3d14b6f4	0.03630729
115	0xbe6ba3dd	-0.23011728
116	0xbce46080	-0.027878046
117	0xbe003832	-0.12521437
118	0xbdb918ee	-0.09037958
119	0x3bb3b18d	0.005483812
120	0xbca596d5	-0.020213524
121	0xbd421c48	-0.047390252
122	0xbe205b3c	-0.15659803
123	0xbe2c737f	-0.16840933
124	0x3f276fc4	0.65404916
125	0xbc25f5b4	-0.010129381
126	0xbea3cc7c	-0.31991947
127	0xbc947277	-0.018120987

value.2.weight f4 [1, 128]
0	0xbc59ab38	-0.013285451
1	0xbe3301b1	-0.17481114
2	0x3f590b28	0.8478265
3	0x3d459132	0.048234172
4	0xbcf9eb32	-0.030507658
5	0xbc500f6a	-0.0126989875
6	0x3d74f730	0.05980605
7	0x3cb29eea	0.021804292
8	0xbc90f2c9	-0.017693894
9	0xbd1e4c0d	-0.038646746
10	0xbbf681ee	-0.007522813
11	0x3b88b913	0.004172453
12	0xbcb9373e	-0.02260935
13	0xbd4ebec0	-0.050474882
14	0x3c986185	0.018601188
15	0x3dc10648	0.09425026
16	0x39d76514	0.00041083305
17	0xbc9e963b	-0.019358745
18	0xbc26b4ec	-0.010174971
19	0x3b15b5b7	0.0022843906
20	0xbb5de629	-0.003385911
21	0xbbabf5dd	-0.005247815
22	0x3c5ee808	0.013605125
23	0xbb4014b6	-0.002930922
24	0x3cd0f9e9	0.025509791
25	0x3bd5b557	0.0065218615
26	0xbc72398a	-0.014784226
27	0x3e22dae2	0.1590381
28	0xbd3f7e10	-0.046751082
29	0x3c15bf16	0.009139797
30	0x3c503036	0.012706807
31	0xbb2cb2b8	-0.0026351642
32	0xbdfbc0b5	-0.12292615
33	0xbbfbe7aa	-0.0076875286
34	0xbbcebdc8	-0.006309245
35	0xbb7621ae	-0.0037556696
36	0x3e63257f	0.22182272
37	0xbe2fab36	-0.17155156
38	0xbb00fad6	-0.001968076
39	0xbb7b597a	-0.0038352893
40	0xba25a50d	-0.0006318845
41	0x3a067c25	0.00051301933
42	0x3d83e4b0	0.06440103
43	0xbde245ca	-0.110484675
44	0x3d54f90c	0.051995322
45	0xbe36606e	-0.17810223
46	0xbe8a1949	-0.26972416
47	0x3c0b7ce6	0.008513665
48	0xbd8212e9	-0.06351263
49	0x3e8057ee	0.25067085
50	0xbd68738a	-0.05675081
51	0x3f1a97ed	0.6038807
52	0xbea0873c	-0.31353176
53	0x3ed6407f	0.41846082
54	0xbc98aa52	-0.018635903
55	0xbbe4190b	-0.006960993
56	0xbc8651e4	-0.01639647
57	0x3daa7c2b	0.083244644
58	0x3e8739bc	0.26411235
59	0xbd30a11e	-0.043122403
60	0x3cc6fcd5	0.024290482
61	0x3e0231ed	0.12714358
62	0xbad40002	-0.0016174319
63	0x3a624d2b	0.0008632715
64	0x3d0f96a1	0.03505576
65	0xbac70010	-0.0015182514
66	0xbe55b641	-0.20870306
67	0xbce01770	-0.027354926
68	0x3ca25dd2	0.019820128
69	0x3c1effaa	0.00970451
70	0x3b31127b	0.0027019072
71	0xbd7acc24	-0.06122984
72	0xba2c6498	-0.0006576269
73	0xbe2e9e51	-0.1705258
74	0xbac913ed	-0.0015341021
75	0x3c661203	0.01404238
76	0xbe9e5d5c	-0.30930603
77	0xbe735f3e	-0.23766801
78	0xbcf324cd	-0.029680634
79	0xb90d9b33	-0.00013504624
80	0xbd2bac71	-0.0419125
81	0x3ce7c05c	0.028289966
82	0x3cf01146	0.029305112
83	0x3cfa3514	0.030542888
84	0xbd46c1a2	-0.048524506
85	0xbce2736c	-0.027642928
86	0xbc8a4b35	-0.016881565
87	0xbba50ea3	-0.005037145
88	0xbae3d9cf	-0.0017383638
89	0xbb255b78	-0.0025231522
90	0xbc5a9edc	-0.013343539
91	0xbb1c492b	-0.0023847322
92	0x3befd75a	0.007319373
93	0xbc9e91c6	-0.01935662
94	0x3c0e7ad1	0.008696274
95	0xbbc34e92	-0.005960294
96	0x3f27f32b	0.6560542
97	0x3cba8419	0.022768067
98	0xbcfc70cb	-0.030815503
99	0x3c666a85	0.014063482
100	0x3d1dd270	0.038530767
101	0x3e40aa13	0.18814878
102	0x3d10c4a2	0.035343774
103	0xbc59576c	-0.013265472
104	0x3e152414	0.14564544
105	0x3ee216dc	0.44158065
106	0x3e0a7ca8	0.13524115
107	0x3b121844	0.0022292295
108	0xbdb7c319	-0.08972759
109	0xbe28e8e7	-0.16495095
110	0x3cdc9273	0.026925301
111	0x3b0c2286	0.0021382882
112	0x3cd097cf	0.025463013
113	0xbb6853cf	-0.0035450344
114	0xbb521147	-0.0032053755
115	0xbca90c1c	-0.020635657
116	0xbc05ec53	-0.00817402
117	0xbb213456	-0.0024597845
118	0xbd8cc8cf	-0.06874239
119	0xbcbbfac5	-0.022946725
120	0xbb9c95b4	-0.004778588
121	0xbcdbda98	-0.026837632
122	0x3c94c66c	0.018161021
123	0x3bb50791	0.0055245836
124	0x3c90b8a1	0.017666163
125	0x3ccc86c8	0.024966612
126	0x3e07c784	0.13259703
127	0x3c47cb8b	0.0121945245
