params/target_net.pth (torch, 154751 bytes, 9 tensors)

feature.0.weight f4 [128, 30]
000000 a8 5f 38 bd 0c 1c 7b be 6f 4e 22 be 52 15 5d be
       -0.0450131 -0.24522418 -0.15850233 -0.21590164
000010 e5 e4 0e 3c 53 74 62 be 62 a9 68 bd 85 7f 15 3d
       0.008721565 -0.22114687 -0.05680216 0.036498565
000020 41 53 c8 3c 14 95 01 be 6b 90 e5 3b 93 4e e1 bd
       0.024453761 -0.12654525 0.0070057414 -0.11001315
000030 98 b3 30 be 3f 1a 2c be 00 da 3d be 5d ff 97 bd
       -0.1725601 -0.16806887 -0.18540192 -0.074217536
000040 76 cf 96 3d 56 54 91 bd 30 e3 b6 bd 7c 90 78 be
       0.07363789 -0.07096164 -0.08930051 -0.24273866
000050 00 1e bb 3d 3c fb 7a bd ee f2 91 bd 0e 58 a3 bd
       0.091365814 -0.061274752 -0.07126413 -0.079757795
000060 eb 20 69 3d 6a ab 54 be dd 72 8b bd 34 0d 7b be
       0.05691616 -0.20768514 -0.06809018 -0.24516755
000070 3d c5 83 be c6 01 12 3d b3 35 6e 3d d3 17 e7 bd
       -0.25736418 0.035646223 0.05815668 -0.11283841
000080 28 d8 3f be 25 d6 85 be f8 8c 38 be ec 10 f4 ba
       -0.18734801 -0.26139942 -0.18022525 -0.0018620766
000090 70 0e 4e bc f0 ea 3c 3d 44 80 ff bd ed 63 14 3d
       -0.012576684 0.04612249 -0.124756366 0.03622811
0000a0 65 2a 92 3d d8 ff b5 bd aa 85 d3 bd 8e d7 94 3d
       0.07136992 -0.08886689 -0.10328229 0.07267676
0000b0 79 51 44 be 56 ba 19 bd 97 87 af bd d6 35 ad 3d
       -0.19171704 -0.03753122 -0.085707836 0.08457534
0000c0 64 cb 8c 3d b4 2c 7c be 38 66 b3 bd 0f af a1 bd
       0.06874731 -0.24626428 -0.08759731 -0.07894718
0000d0 aa f7 59 be 4a ba ea bd a3 8e e1 bd 7f c2 aa bd
       -0.21285883 -0.11461313 -0.11013534 -0.083378784
0000e0 38 99 b7 3c 80 e4 b5 bd 56 89 9d bd 22 f0 57 be
       0.022411928 -0.088814735 -0.076922104 -0.21087697
0000f0 ae fa 97 bd 7f db aa 3d 08 99 b0 bd 3d 5d 0c 3e
       -0.0742086 0.08342647 -0.086229384 0.13707443
000100 27 87 27 be df ac 2b bc 47 31 21 be 75 05 8e bd
       -0.1636015 -0.010478227 -0.15741454 -0.069346346
000110 c5 42 83 3d f0 77 32 be 53 19 ed bd 5e a8 19 3e
       0.0640922 -0.17428565 -0.11577096 0.15005633
000120 85 b3 84 3d 5e 18 98 bd ae 5e 18 be c6 7c 23 bd
       0.06479553 -0.07426523 -0.14879867 -0.039913915
000130 ab cf 68 3d f3 af e3 bd df 0c 35 3d 46 98 94 bd
       0.056838673 -0.11117544 0.044201728 -0.07255606
000140 52 a9 d5 3d 79 fa de bd 38 2f 38 3e b6 39 17 be
       0.10432686 -0.108876176 0.17986763 -0.14768109
000150 99 fd 5e bd c7 f6 30 3d 69 10 d9 bb fe 7f 9a bd
       -0.05444107 0.043204095 -0.0066242707 -0.07543944
000160 87 47 2f 3e 24 6f f9 3d cd 23 81 3c 5b c0 e3 bd
       0.1711713 0.121794015 0.015764141 -0.11120673
000170 35 b7 00 be 89 53 c6 bd 12 b0 57 be 47 38 24 be
       -0.12569888 -0.09683902 -0.21063259 -0.16037093
000180 90 8a be bd fa 69 db bc 9f b6 a0 3d 42 18 56 be
       -0.093037724 -0.026783932 0.07847332 -0.20907691
000190 95 a3 09 be 0b cd 6a bd de 6e 2d 3d f7 b9 24 be
       -0.13441308 -0.05732445 0.04234206 -0.16086565
0001a0 cb 73 63 be 54 18 82 bd 9c dc 89 bd 83 37 ef 3d
       -0.2221214 -0.063522965 -0.06731531 0.1168051
0001b0 2a b8 d5 bd 42 cd ee bd cd ae 07 bd 11 d3 4d be
       -0.10435517 -0.116602436 -0.033125687 -0.20100047
0001c0 4f 97 26 be d4 e3 77 be 9d ed 02 bc 5c db 84 bc
       -0.16268657 -0.24208003 -0.007991222 -0.01621788
0001d0 0f 89 38 bc a5 fa 1a 3d 61 f7 c2 3c 07 78 a9 3d
       -0.011263146 0.03783669 0.0237996 0.082748465
0001e0 1c 2a fb 3d ad 42 8c be c4 d4 0c 3d 68 3f b4 bd
       0.12263891 -0.2739462 0.034382597 -0.08801156
0001f0 00 b1 48 3d 0e d3 1b be 2c 8f 79 be c5 28 18 3d
       0.048996925 -0.1521723 -0.24371022 0.037148256
000200 7e 45 2a 3d a5 9e 88 be 16 3d 98 3d bc c0 f1 bd
       0.04157018 -0.26683536 0.07433526 -0.11804339
000210 45 ec 86 bd be b6 14 be e7 9e a2 3d 0a 38 55 bc
       -0.065880336 -0.14522836 0.079404645 -0.013013849
000220 77 4f 23 be 40 f2 ba bc 5a a6 5f be 6f a5 20 be
       -0.15948282 -0.022820592 -0.21840802 -0.15688108
000230 2e dc 1a be d7 dc a6 be 06 42 99 bd f7 bf 23 be
       -0.15123054 -0.32590362 -0.07483296 -0.15991198
000240 22 8b 53 bd ef 51 b0 3d 25 d7 89 be 25 76 95 3d
       -0.05164636 0.086093776 -0.26921955 0.07297925
000250 c3 02 64 bd 5c b6 86 3a 2f 76 ab bd 6e 19 16 be
       -0.055666696 0.0010277736 -0.08372151 -0.14658138
000260 ec 11 78 bd e8 07 37 be 93 05 69 bd 8a 0d 5a be
       -0.060563967 -0.1787411 -0.05689008 -0.21294227
000270 71 b6 4b bd 33 84 e3 bd 16 48 12 be 6c 11 f6 bd
       -0.049734537 -0.111091994 -0.14285311 -0.12015042
000280 71 ce c7 be a2 d5 6a 3d fa 0e 66 3d c0 0a b9 bd
       -0.3902469 0.057332642 0.056166627 -0.090352535
000290 28 7c c6 3c 49 03 ca bd a3 49 f9 3d 5e db 1d bc
       0.024229124 -0.09863908 0.12172248 -0.009634821
0002a0 37 13 2c be 37 75 a4 bc c5 ba 88 be 14 33 09 3e
       -0.16804205 -0.020075424 -0.26704994 0.13398391
0002b0 36 32 92 be 65 c6 11 3e 73 6c 68 be 3b cf e0 be
       -0.28553933 0.14235838 -0.2269762 -0.43908104
0002c0 0d 89 06 bd 15 e9 0c bd 01 ce 58 3d 20 00 34 bd
       -0.032845546 -0.03440197 0.052930836 -0.04394543
0002d0 89 f0 0d bf 19 7b c8 be c7 e9 ca 3e cf 21 2b be
       -0.5544515 -0.39156416 0.39631483 -0.16712116
0002e0 a7 a4 06 3e 1c e4 39 bf 22 e8 d0 be 3e d5 f6 3e
       0.13148747 -0.7261369 -0.40802103 0.48209566
0002f0 30 74 bc be 69 9e 0e be 5b 71 17 bf 90 c8 bc be
       -0.36807394 -0.13927616 -0.5915734 -0.36871767
000300 1f 88 14 c0 42 88 d4 be 29 e7 b9 bf 42 04 15 bf
       -2.3208082 -0.41510206 -1.452367 -0.5820962
000310 ba a0 d5 be 5c 4f d9 3e 9b 62 e3 be 1b 7b 7e 3d
       -0.41724187 0.4244336 -0.44411168 0.06212912
000320 b8 c0 f7 be 18 fc 3f be 1d ea c2 3e e8 e9 bb be
       -0.4838922 -0.1874851 0.3806924 -0.36701894
000330 36 fa 4e bb e1 74 09 bf 64 9c ff be 16 4e af 3e
       -0.0031582243 -0.5369397 -0.49924004 0.34239262
000340 31 e6 c2 be 59 4f 90 3d 54 7c 82 bc b6 f3 11 be
       -0.38066247 0.07046384 -0.015928425 -0.14253125
000350 97 b2 2c be 04 a9 f3 bd 8c 6d fc 3d cd 56 9e 3b
       -0.16865002 -0.118974715 0.12325582 0.004832125
000360 89 cf c2 bd 18 45 b8 3d 0f ec b4 bc b0 01 34 be
       -0.095122404 0.089975536 -0.022085218 -0.17578769
000370 dd aa 0a 3d 2d 35 08 be 14 27 f2 bd e7 21 22 3e
       0.033854354 -0.13301535 -0.1182386 0.15833245
000380 de 8e 97 bc 99 2a cb 3d 7e a0 1f bd fa 15 d0 bd
       -0.018500742 0.09920234 -0.038971417 -0.10160442
000390 2c 99 08 be 96 c4 90 bd 0f 6e b0 bd 12 02 db 3d
       -0.1333968 -0.07068746 -0.08614742 0.10693754
0003a0 40 ac b5 3d 98 77 3a 3e 0c 9d f2 bd df 8c 28 3e
       0.08870745 0.18209684 -0.118463606 0.16459988
0003b0 47 35 b1 bc 90 71 be 3d 47 cd 20 3e b8 86 38 3e
       -0.02163185 0.09299004 0.15703307 0.18020141
0003c0 9d 1f 03 be 26 70 2f bd e1 9e 19 be e1 b3 c7 bd
       -0.12805028 -0.042831562 -0.15002014 -0.09751106
0003d0 23 25 fd bc 6e 72 9c b9 d3 11 e8 3b 82 f7 69 3b
       -0.030901497 -0.00029839895 0.007082203 0.0035700505
0003e0 55 64 86 be ca e0 55 be 45 23 1b be bd c9 15 bd
       -0.26248422 -0.20886531 -0.15150173 -0.036569346
0003f0 dd 55 88 bf 89 1a 43 be 5e ce 1b be 37 b0 2f be
       -1.0651203 -0.19053091 -0.15215442 -0.17157064

feature.0.bias f4 [128]
000000 99 4f 49 bd 12 8e e5 3d d0 03 30 3e 87 75 38 3d
       -0.049148176 0.112087384 0.17188954 0.045033958
000010 39 51 c3 bc e5 0d 04 bf c4 60 85 3e b4 10 09 3e
       -0.02384244 -0.515837 0.2605039 0.13385278
000020 f5 b2 cc bd bc b9 03 bf 0e 9b af be e9 99 40 be
       -0.09995071 -0.51455283 -0.34297985 -0.18808712
000030 78 a9 46 3d 2d a3 17 3d f8 bc 30 be e8 bc 36 be
       0.04850146 0.03702085 -0.17259586 -0.178455
000040 a7 46 38 3b 50 6f 35 be fa 4a dc be 9a aa 5e 3e
       0.0028118284 -0.17718244 -0.43025953 0.21744767
000050 c0 b9 39 be b8 0a 7c 3e f1 7e 4e be ff 24 a5 bd
       -0.18137264 0.24613464 -0.20165612 -0.08063697
000060 bf 8b 60 be e7 1e af 3b a7 0e 20 bd a7 45 b4 3b
       -0.21928309 0.00534426 -0.039076474 0.0055014673
000070 e5 af 8f be 47 21 2c be f2 b9 59 be f0 1b 39 bd
       -0.28063884 -0.1680957 -0.21262339 -0.04519266
000080 56 0b 19 be 84 66 fc bd 38 e4 37 be 11 93 47 bc
       -0.1494573 -0.12324241 -0.17958152 -0.012181059
000090 94 39 8c bd 02 e2 5d be bd ca 80 bc a9 92 07 be
       -0.0684692 -0.21668246 -0.015721673 -0.1323954
0000a0 da b2 df bb 3d f0 00 be a7 d9 2c bd 71 bd 4e be
       -0.0068267407 -0.12591644 -0.042199757 -0.20189454
0000b0 b4 25 f9 3d c0 24 3d 3c bf bb 28 be ca 46 5e be
       0.121653944 0.011544406 -0.1647787 -0.21706691
0000c0 4c 64 00 3e 7e 71 12 be 0f fd ad bd 24 35 f2 bd
       0.1253826 -0.14301106 -0.08495533 -0.11826542
0000d0 76 9f 1e 3d 8f 0c a1 bd 81 13 4c be a9 13 4d be
       0.038726293 -0.078637235 -0.19929315 -0.20027031
0000e0 8f ed 6e bd 34 23 a6 3c 71 e0 44 3d d5 1d 11 bf
       -0.058332022 0.020280458 0.048065607 -0.56686145
0000f0 35 df 8a bd 78 2d b1 bd 5e dc 88 bd 6a 9f 6f 3d
       -0.067808546 -0.086512506 -0.06682657 0.05850164
000100 62 d8 5c be de f0 96 3b b0 e2 b4 bd e8 44 8e be
       -0.21566918 0.0046063503 -0.088323 -0.27786946
000110 03 d0 e0 3d 1b 54 74 3c 27 dd 21 be 76 04 a3 3d
       0.10977175 0.01491263 -0.15807019 0.07959835
000120 ec 6e 75 bd 95 cc 2e be 58 20 bb bc 7b 60 16 be
       -0.059920236 -0.1707023 -0.022842571 -0.14685242
000130 fa a6 ee bc 06 98 13 be 8d f9 06 bc fa e5 57 bd
       -0.029132355 -0.14413461 -0.0082382085 -0.052709557
000140 a7 21 ba bd 95 c2 88 be 87 7c a2 bc 9f b9 ac be
       -0.0908845 -0.26710954 -0.01983477 -0.33735368
000150 d2 1a db be 91 36 4c be 89 2c 40 be b9 66 ce be
       -0.427939 -0.1994269 -0.18766989 -0.40312746
000160 0c a1 6b 3e aa 7f a3 be 6e 2f a3 3d f1 3f 4c be
       0.23010653 -0.31933337 0.07968031 -0.19946267
000170 24 62 77 3c 6d e7 95 bc 16 c5 12 bd 96 06 1f be
       0.015099082 -0.018298829 -0.035832487 -0.15529856
000180 75 86 9e 3c 63 97 eb bd b1 fe 40 be 2d 7f 84 bd
       0.019351223 -0.11503484 -0.18847157 -0.06469569
000190 37 8d 20 be bb ad cc be df 6d a9 bd af 4a 53 be
       -0.15678869 -0.39976296 -0.082729094 -0.20633958
0001a0 9f 97 ca 3e e1 98 9b 3c 39 c9 c8 bd d0 69 b8 bc
       0.39568803 0.018993797 -0.09804005 -0.022511393
0001b0 63 1e 62 be f5 1b 04 be b3 13 93 bd 08 8d 32 be
       -0.22081904 -0.1290129 -0.07181492 -0.17436612
0001c0 d9 b6 56 3d b1 f8 62 3d 6a e5 db bd 13 92 57 be
       0.05242047 0.05541295 -0.10737117 -0.21051817
0001d0 18 fc bf bd 44 58 75 bd 0e 9a 18 be 84 28 7e be
       -0.09374255 -0.05989863 -0.14902517 -0.24820143
0001e0 76 53 88 3d 57 f8 9e be 53 9d f5 3a d9 54 45 bd
       0.06656544 -0.31048843 0.0018738903 -0.04817662
0001f0 64 f0 71 be ee ae 94 bd da db 54 3d 79 dc ca 3d
       -0.23626858 -0.07259928 0.05196748 0.09905333

advantage.0.weight f4 [128, 128]
000000 ef 76 ae bd 05 df 03 be 9c 60 74 bd b6 4d 1c be
       -0.085187785 -0.12878044 -0.059662446 -0.1526402
000010 e1 3d ca bd 37 5d 28 be f1 df 42 3a 1a 50 64 bc
       -0.09875084 -0.16441809 0.00074338826 -0.013935113
000020 16 00 9e bd 3a 1d d4 bd 14 b0 f0 bd 37 3f 2d be
       -0.0771486 -0.10357137 -0.11752334 -0.16918646
000030 f7 74 3c bd 25 de 8c 3d 98 da b6 bd 2e 68 a5 bd
       -0.046009984 0.06878308 -0.08928412 -0.08076511
000040 f4 3d f6 bc 82 10 50 bd 95 0c 85 be 84 d9 86 3c
       -0.030058838 -0.050796993 -0.25986162 0.016461141
000050 66 2a 12 3d 9e ce 1c be 35 29 87 bd 2d 11 0e 3c
       0.035684966 -0.15313193 -0.065996565 0.008671087
000060 bb fb 63 3c 16 5e 9f bd 25 65 83 bd 79 d9 d7 ba
       0.013914998 -0.07781617 -0.06415776 -0.001646801
000070 5d ca 0b bd ec 86 f1 bd ff d6 31 3d fa 86 d2 bd
       -0.034128536 -0.117933124 0.043417927 -0.10279651
000080 f1 14 4f bb 99 60 c2 bd 3e 5e 10 be 0b e6 ea bc
       -0.0031598175 -0.09491081 -0.1409845 -0.028674146
000090 4b cf 73 3c a4 aa 86 bd 1b 3e 67 bc 84 c8 0d bc
       0.014880965 -0.06575516 -0.014113928 -0.008653764
0000a0 66 24 ac bd 23 5d e3 bc 08 04 b4 bd 12 fd 5f 3d
       -0.0840538 -0.027754372 -0.087898314 0.054684706
0000b0 bd ca 00 bd cd bf 80 3c 61 d2 c4 3d 02 fa d9 bd
       -0.031443346 0.015716458 0.09610439 -0.10643388
0000c0 6d d9 8f bd bc 95 0d 3d 7c 16 04 bd 87 9d a9 bd
       -0.070238926 0.034566626 -0.032248005 -0.08281999
0000d0 05 fb 8f bd b9 96 46 bc 54 57 84 3c a4 07 84 bc
       -0.070303 -0.012120896 0.016154923 -0.016116925
0000e0 3b a5 e7 bb 9d 8f 9a 3c bc f8 70 bc 5b 49 e2 bd
       -0.0070692576 0.018867308 -0.01470774 -0.11049148
0000f0 6e 53 9d bd 9a d5 54 bc 19 f2 c9 bb f7 ae 2a bd
       -0.076819286 -0.01299038 -0.0061628935 -0.041670766
000100 84 a5 fe 3b 43 8b 79 bc cc e7 71 bd 79 41 cf b9
       0.007771196 -0.0152309565 -0.05905895 -0.00039530898
000110 81 e7 c1 bd 24 a1 f9 bd bb 57 f6 3c a9 25 4a b9
       -0.09467984 -0.12188938 0.03007113 -0.0001927825
000120 d3 37 ea bd 76 64 93 bd 9a 60 5b 3c 5b 6a e9 bd
       -0.11436429 -0.07196896 0.013389731 -0.11397239
000130 6a 81 5b bd b5 b4 8f 3d 6d b1 05 bd 36 38 91 3c
       -0.053590216 0.07016889 -0.03263991 0.017726999
000140 ed 41 09 be d9 df 4b bd 70 4c b3 3d 1e 70 99 3d
       -0.13404055 -0.049774025 0.08754814 0.07492088
000150 78 b0 30 be 02 1a 5d 3d ba af df bc 64 2d 05 3d
       -0.17254817 0.05397988 -0.027305473 0.03251399
000160 b5 c0 0d be e3 c1 e6 bd c6 47 17 be 20 5d b1 bd
       -0.13843043 -0.1126745 -0.14773473 -0.0866034
000170 26 9b 93 bd 00 ff 3b bd 7d d1 82 3c 91 2e c5 bb
       -0.072073266 -0.045897484 0.015969032 -0.006017514
000180 b6 e9 1b bc 99 d1 5d bd 21 55 c3 bc c3 4c 79 3c
       -0.00951617 -0.054154966 -0.023844304 0.015216055
000190 38 fd b7 bd d5 95 04 bc 90 05 b7 bc cc ce 71 bd
       -0.089838445 -0.008092363 -0.02234152 -0.059035107
0001a0 68 52 b5 bd db 3c e2 3c 30 4e ba 3b 3f 3e bf bb
       -0.08853608 0.027616909 0.00568559 -0.0058362777
0001b0 d9 94 4b bb b7 16 a1 bd 9f bd 23 be 75 54 85 bc
       -0.0031064062 -0.07865661 -0.15990303 -0.016275624
0001c0 d8 f0 c4 3c 33 0d e2 bd fe 59 98 bd 51 5b c9 3c
       0.024040624 -0.11037674 -0.0743904 0.024579676
0001d0 3d 49 07 be 80 b2 35 be 19 65 54 3d 13 66 f4 bc
       -0.13211532 -0.17743874 0.051854227 -0.029833829
0001e0 4b c5 64 bd 51 a5 de bc fc 50 8d ba 72 d7 eb ba
       -0.055852216 -0.027178438 -0.0010781582 -0.0017993285
0001f0 57 2c 00 bd e9 71 cf bc 49 17 cf 3c d3 24 69 bd
       -0.031292286 -0.025322871 0.025279658 -0.056919884
000200 9e cb 10 3e f2 96 63 3b c5 30 86 bd a8 8e c5 3a
       0.14140174 0.0034727422 -0.06552271 0.0015072422
000210 ad 35 8a bd 53 d4 6b bd 9e a2 1f 3f 7d 49 88 3d
       -0.06748519 -0.057575535 0.6235751 0.06654642
000220 e4 61 f6 3d be 8b 17 be 01 01 44 be 47 cd a0 bd
       0.1203039 -0.14799401 -0.19141008 -0.078516535
000230 91 7f 5d 3c 41 ab 4a bd 9d c6 95 3c f8 9d b1 3d
       0.013519184 -0.049479727 0.018283183 0.08672708
000240 6b f4 e5 3c 92 5f da bc ad a5 08 3d c4 b0 97 3e
       0.02807065 -0.0266569 0.033361126 0.2962705
000250 ff b9 3a 3d 0f b0 20 3d e8 95 30 bd 3e c0 21 bd
       0.045587536 0.039230403 -0.04311171 -0.039489977
000260 07 65 a8 3d 4f 4e ae 3c 18 59 3d be 7c 58 f9 3d
       0.082223944 0.021277575 -0.18491018 0.1217508
000270 cd 6a 8a 3e be 6e a0 3d 40 69 bc bd 7c 2b 8d 3c
       0.27034608 0.078336224 -0.09199762 0.017232649
000280 4a fa 57 3b 9d ec 97 3d 56 56 19 be e5 f4 83 bd
       0.003295558 0.07418177 -0.14974341 -0.06443194
000290 6c 7c 79 be d1 a3 d8 3d 31 69 c2 bc 51 be 45 3e
       -0.2436387 0.105781205 -0.0237318 0.19310881
0002a0 20 39 b7 bd 35 ac 06 be 55 95 82 3d b4 e8 7e bc
       -0.089464426 -0.1315163 0.06376139 -0.01555841
0002b0 80 bf 37 bb 0a b1 de bd 57 87 2e be 89 84 42 bd
       -0.0028037727 -0.10873611 -0.17043816 -0.047489677
0002c0 d6 b5 1d 3f 17 59 a4 bd 3f 8a aa 3d 8f 89 a1 3d
       0.61605585 -0.08024805 0.083271496 0.07887565
0002d0 6b a3 e6 3d d5 3e 86 3d 4f 51 7f 3e 86 10 9b bd
       0.11261638 0.06554953 0.2493336 -0.07571511
0002e0 6f 36 0c bf 80 f8 ba 3e e6 32 1b be 7e 7c b8 bd
       -0.5477056 0.36517715 -0.15156135 -0.0900812
0002f0 96 a7 19 bd d6 66 90 bd b5 11 8d 3d b6 19 ad 3d
       -0.037513338 -0.070508644 0.06888143 0.084521696
000300 2a d2 59 bd 79 84 7a 3e 0f 00 a1 bd 8d 1d 1a 3f
       -0.053178944 0.24464597 -0.07861339 0.6020134
000310 2b b6 e6 3d 09 d8 4b 3b 5b df e2 3d 57 c9 23 be
       0.112652145 0.0031104109 0.11077758 -0.15994774
000320 70 88 42 3d aa 8b 52 be c4 76 0b 3e e1 43 b6 be
       0.0474934 -0.2056109 0.13619524 -0.35598662
000330 50 3d 35 be f4 3d 0f 3c 26 95 14 3c c1 2c c4 bd
       -0.1769917 0.008742798 0.009068763 -0.09578849
000340 f3 28 6d bd 71 ff dc bc 48 3c b4 bc f5 42 8a 3d
       -0.05790038 -0.026977273 -0.0220014 0.06751052
000350 b5 03 87 be 23 73 70 bd b7 36 a4 3c 72 f5 e6 3c
       -0.26370016 -0.058703553 0.020045621 0.02819321
000360 08 76 0d 3f 63 71 e9 be 72 26 e3 bc cb 21 e0 bc
       0.55258226 -0.4559432 -0.027728293 -0.027359864
000370 28 c9 35 bd 17 39 21 bd 14 1c f8 bd d3 d2 e5 bd
       -0.04438129 -0.039361086 -0.121147305 -0.11221852
000380 3d 10 04 3e de e6 99 3d fd b3 09 3d 06 f5 29 bc
       0.1289682 0.075147375 0.033618916 -0.01037336
000390 f5 54 07 be f8 22 39 be 46 01 90 bd 49 6d 49 be
       -0.13216002 -0.18079746 -0.07031493 -0.19670595
0003a0 4d f3 06 be a8 1c 3f 3e c7 ae a3 bc be 8d 1f be
       -0.1317875 0.18663275 -0.019980801 -0.15581414
0003b0 b7 3e ab bd e7 2e 24 3d f4 d4 7a be 07 f0 2e bd
       -0.08361571 0.040083792 -0.24495298 -0.042709377
0003c0 14 e2 89 3d be fc 0e 3f 0d 7c 9d 3c 6e db 17 be
       0.06732574 0.55854404 0.019224191 -0.148298
0003d0 cd 81 9b 3c 46 ec 1f bd 9d 8f 81 bc 09 82 d1 3b
       0.018982792 -0.039043687 -0.01581555 0.006393675
0003e0 a4 54 12 3e 45 82 07 be 0e 80 14 3e 25 29 8d bc
       0.142901 -0.13233288 0.14501974 -0.017231533
0003f0 fa 07 e3 3d be dd 1a be af 88 aa bc a1 17 47 3d
       0.11085506 -0.1512365 -0.020817129 0.04860652

advantage.0.bias f4 [128]
000000 6c c8 7d be a7 83 13 3f 25 aa 04 bd ff 87 21 be
       -0.24783486 0.5762276 -0.032388825 -0.15774535
000010 84 e2 78 be 01 a9 41 be 6a 75 dd bd 4e 8b 1a 3f
       -0.24305159 -0.18912126 -0.108134106 0.6036881
000020 1d 20 28 bc dc 02 f4 bd e9 f8 45 bd 55 2d 0b be
       -0.010261563 -0.11914608 -0.048333082 -0.13591512
000030 46 5f 11 be 1d 49 13 3c 5f 11 ae be 7d 74 05 be
       -0.141965 0.0089895995 -0.33997628 -0.13032718
000040 c8 29 1f 3f 9e 51 bd bd 1b 03 00 3f c7 1e 53 3f
       0.6217313 -0.09244083 0.5000474 0.8246884
000050 b5 b8 06 be 5e 72 a6 3e a0 88 b0 be 86 0c 24 bd
       -0.13156398 0.3250913 -0.34479237 -0.040051006
000060 c3 1b 64 be ea 59 06 3f 7c de 24 3f 46 41 a8 3e
       -0.22276215 0.5248095 0.64401984 0.328623
000070 d8 c0 33 be aa 1b 33 3f 14 8d fa bd a7 e7 0e 3f
       -0.17554033 0.69964087 -0.1223394 0.55822223
000080 c9 4f 38 3f ee c6 90 be 7c 4b 77 bd e3 05 fd 3d
       0.7199674 -0.2827677 -0.060374722 0.123546384
000090 28 8b a9 3e 00 ea b2 bd 66 9d 3f 3f 8f 10 4a 3e
       0.3311398 -0.08736038 0.74849546 0.19732879
0000a0 a4 a7 4f bd a6 55 74 3e 93 0b fb 3d 04 c9 76 be
       -0.050696984 0.23860797 0.12258067 -0.24100119
0000b0 79 f3 5b 3d 47 a3 27 be f0 bd 79 3e cd 89 09 be
       0.05369899 -0.16370879 0.24388862 -0.13431473
0000c0 b7 03 80 bd f1 ff c5 be 99 14 8d 3e a5 63 96 3d
       -0.062507086 -0.3867183 0.27554777 0.073432244
0000d0 93 a5 f8 3c 85 18 89 bd fb 89 2e 3f 9d 40 8a 3d
       0.03035239 -0.0669413 0.6817929 0.06750605
0000e0 6c c0 76 be d6 9f 24 3f af 02 2f be a0 ae eb 3e
       -0.2409684 0.6430639 -0.17090867 0.46031666
0000f0 6a fb 16 3f ea bc 80 bd ca fa 59 be 8a 81 e8 b9
       0.5897738 -0.062860325 -0.21287075 -0.00044347002
000100 f2 86 55 be ed 14 04 bd da 2d 23 bf 8e 2a 1c be
       -0.20852259 -0.03224652 -0.6374184 -0.15250608
000110 b5 08 82 bc 03 ea 60 3f 98 c9 3d be 9f 62 ae bd
       -0.015873292 0.87857074 -0.18533933 -0.08514904
000120 89 e5 4f bd 87 a2 a4 3d ec 03 8b 3e a0 96 b6 be
       -0.05075601 0.08038812 0.2715143 -0.35661793
000130 b3 3c 71 3e 6e d9 46 3f b8 0e b3 be 2d 7e 29 3e
       0.23558311 0.7767552 -0.34972167 0.16552038
000140 47 71 27 be 4f a1 48 3e 49 15 47 be c0 8b 30 be
       -0.16351806 0.19592784 -0.19441713 -0.1724081
000150 e5 39 05 be 7e 6c 97 be 81 fb 46 bd ed b9 0e bd
       -0.13010366 -0.2957496 -0.048579697 -0.03484528
000160 85 6a 0c be ca dc 5e be 5c a4 f0 be 55 45 87 be
       -0.13712509 -0.21763912 -0.47000396 -0.26420084
000170 86 b1 a0 3d 70 63 4f 3f 7e 06 28 3a cb 79 fb bb
       0.0784636 0.81011105 0.0006409659 -0.007674431
000180 fa d6 9b 3e 28 1a ed 3e e4 4e 08 3f 01 28 ca bd
       0.30437452 0.46309018 0.5324538 -0.098709114
000190 95 c5 60 3f aa a4 3b 3f cf 3c e2 3e 0d bc 8a bd
       0.87801486 0.7329813 0.44187018 -0.06774149
0001a0 91 eb 4b be 93 9a 2d 3f 29 48 07 3f 61 7b a5 3e
       -0.1991408 0.67813987 0.5284448 0.32320693
0001b0 a4 fc 70 bd d6 30 19 bc 56 4f 96 be 4f 70 20 bf
       -0.058834687 -0.009350022 -0.29357404 -0.6267137
0001c0 4b f2 69 be 2f d1 20 bd d2 19 d6 bd 3e 48 9c bd
       -0.22846334 -0.039261993 -0.104541436 -0.076309666
0001d0 ff b1 33 3d 56 8d 94 bd c9 60 27 3e 5a ac 31 3f
       0.043870922 -0.0725352 0.16345514 0.6940361
0001e0 75 fd 86 bc 0b 23 f6 3d ce 47 14 be ad ed d1 3d
       -0.01647828 0.12018403 -0.14480516 0.10250411
0001f0 65 5b 8e be 19 04 e6 3e 5c 4e 89 bc f2 29 d8 3e
       -0.27804103 0.44925 -0.016760997 0.42219502

advantage.2.weight f4 [5, 128]
000000 ce ba 1e 3d 2d 84 06 bf 4f c5 af 3a 04 86 fd 3c
       0.03875237 -0.52545434 0.0013410243 0.030947693
000010 b6 90 15 be 87 3f 28 be 30 dc b3 bd 03 70 89 bf
       -0.14605984 -0.16430484 -0.08782232 -1.0737308
000020 ea 5b 12 be 66 d4 17 bd f8 08 b5 3b cc fd fe 3c
       -0.14292875 -0.037067793 0.005524751 0.03112688
000030 2c 5e fd bc fa ae dc 3b 63 1b 6f bd 2f c6 3f bc
       -0.030928694 0.006734726 -0.058375727 -0.0117049655
000040 fb ef b4 bd 82 5d 32 be 23 e2 d4 be 8a c1 c8 be
       -0.08834835 -0.17418483 -0.4157878 -0.3921016
000050 0e 93 95 bd ed 84 e3 bd d2 d2 e5 bc 5d 0b 16 bc
       -0.07303439 -0.11109338 -0.028054629 -0.009157983
000060 03 b7 60 3d 9b e7 19 bf 30 4d 87 bd 62 50 58 be
       0.054862034 -0.60119027 -0.06606519 -0.21124414
000070 7e 27 96 bd 78 64 f6 be 25 8b 1e 3e a1 90 f0 be
       -0.07331751 -0.48123527 0.15482767 -0.46985343
000080 6b 69 c6 bc 4e 35 95 be f7 22 b9 3c 5d 0f 0d bc
       -0.02422019 -0.2914223 0.02259968 -0.00860962
000090 c2 92 07 be 05 89 89 3c 3f 62 a2 bd 3e 30 b4 be
       -0.13239577 0.016788969 -0.07928895 -0.35193056
0000a0 6a 67 37 be 82 dc 7e be bc f5 7d be 27 09 a3 bd
       -0.17910543 -0.24888805 -0.24800771 -0.0796073
0000b0 9c 4f 7b 3c 5c b7 8a bd d2 41 c2 bd 5f a7 2e 3d
       0.015338805 -0.06773254 -0.094852105 0.042640086
0000c0 64 30 78 3d 0d 95 84 3d bb 30 4b be 4e 47 12 3d
       0.060593024 0.06473742 -0.19842808 0.035712533
0000d0 25 6a 17 3c ba 8e d8 3d d9 f3 0a bf 48 cc b5 bc
       0.009241615 0.10574098 -0.5427833 -0.022192135
0000e0 df fb 22 3e bb 5f 7e bf 70 1e b4 be 0c 32 92 be
       0.15916394 -0.99364823 -0.35179472 -0.28553808
0000f0 0a b9 20 bf bf 46 c4 bd 39 e0 c0 bd f4 ad 8d 3b
       -0.6278235 -0.09583806 -0.09417767 0.0043237153
000100 39 e0 40 3e b9 c3 cb 3c 23 78 eb bd 88 fc c7 bd
       0.18835534 0.024873601 -0.11497524 -0.097649634
000110 17 78 23 bd 4f 9b ba bd ee 65 9c 3d 7d 9a 87 3d
       -0.03990945 -0.09111654 0.07636629 0.06621263
000120 07 ed 22 be bf 4a bb bc 82 75 07 3c fb 67 6c bc
       -0.15910731 -0.02286279 0.008267762 -0.014429088
000130 6c 34 85 bd b3 fc 19 bf 66 b2 a5 bc 8e b4 3d bf
       -0.06504139 -0.60151213 -0.020226669 -0.7410363
000140 df fa 37 3c a6 4c 73 be a9 6d 57 bc e9 26 cf 3c
       0.011229246 -0.23759708 -0.013148704 0.025287108
000150 5d 32 83 3c 4a df e8 bc 22 2d eb bb 0a 7f 5e bd
       0.016015226 -0.028426785 -0.007177011 -0.054320373
000160 94 a2 85 3c 63 ec e1 3b 8b 7f e0 3d 09 11 4f be
       0.016312875 0.0068946346 0.10961827 -0.20221342
000170 d0 c7 0b bd 81 f9 26 bf 9a 81 e2 bc d1 2a 4f 3d
       -0.034126103 -0.6522446 -0.02764969 0.050577942
000180 80 9e 25 be 34 32 2d be 46 7a bb be c0 ba bd bc
       -0.16173744 -0.16913682 -0.36616725 -0.023160338
000190 20 14 a5 be 21 3b 9a be 14 39 6b bf 6d d6 03 be
       -0.32241917 -0.30123237 -0.9188397 -0.12874766
0001a0 b5 84 97 bb 04 85 0c bf 4b 90 51 bf 37 c8 ba bd
       -0.004623974 -0.54890466 -0.818608 -0.09120219
0001b0 2e bd 1b bd cd ec 1e bd 43 0c f1 3b 31 fb 4b 3d
       -0.038022213 -0.03880005 0.007356198 0.0498001
0001c0 eb 1a ea bd 0e 90 a2 bc 61 47 d7 3c 5d e8 06 be
       -0.114309154 -0.019844081 0.026279153 -0.13174577
0001d0 ac 02 06 bc 69 0b c5 3c d0 02 47 be c7 0e 2e be
       -0.008179348 0.024053292 -0.19434667 -0.16997825
0001e0 14 f0 8f 3a 5f 5a 50 be dc fc 74 bd 31 9e a9 be
       0.0010981583 -0.20346974 -0.059811458 -0.33128503
0001f0 f6 20 18 3e ca e2 fb bd 82 a6 e4 bc 3a 93 94 be
       0.14856324 -0.12299116 -0.027911428 -0.29018575
000200 c6 4f 9e 3c b6 97 0d bf fd 4b 92 bd 3e 97 93 bb
       0.019325148 -0.5530962 -0.071434 -0.0045041135
000210 bd c7 8d bd 6d 8e 8f bc a6 0b 94 bd c3 25 b0 bd
       -0.06922863 -0.017523969 -0.07228784 -0.086009525
000220 89 ec e4 3d 52 18 50 3d 41 bb 58 bd 43 40 00 3e
       0.11177928 0.050804444 -0.052912954 0.12524514
000230 6f 7c 2b bd 0b 29 64 bc 84 f3 f1 bc f2 eb 59 3d
       -0.041866716 -0.013925801 -0.029535063 0.05320353
000240 7f f0 cf 3e 58 f1 a1 be f3 9e 80 3d be 65 05 3f
       0.4061317 -0.31629443 0.06280317 0.5210837
000250 0a 64 d6 bd 83 20 21 3e fc 35 85 bd 59 bf 5f bc
       -0.104683 0.15735058 -0.06504437 -0.013656461
000260 cf 06 3c 3b e2 87 ab 3e 0d 8f 24 3f d1 f9 16 bd
       0.0028690582 0.33502108 0.6428078 -0.036859337
000270 73 29 ef bd 6c ee 51 bd eb 28 70 3e 60 bf ba 3d
       -0.11677828 -0.051252767 0.23453109 0.09118533
000280 9c 9a 18 3d 14 de 79 be 6f e4 22 bd b7 60 36 3d
       0.037256822 -0.24401122 -0.039768633 0.04452583
000290 4e ed 25 3e e8 c8 b4 bd d9 b4 12 bd e4 22 e0 be
       0.16203806 -0.08827382 -0.035817 -0.4377662
0002a0 da 12 ab be 42 06 97 bb 99 8d 8b 3d 5f ac 29 be
       -0.3341282 -0.0046089003 0.06814117 -0.1656966
0002b0 f6 68 a5 bd 76 db ad bb 4a 19 f5 3d 2e 0e 9b bd
       -0.0807666 -0.005305703 0.11967714 -0.07571064
0002c0 4b d2 ff bd f2 b6 66 bd e5 5c 94 3d 03 b7 f9 bc
       -0.12491282 -0.056326814 0.07244281 -0.030482775
0002d0 ab 93 df bb 17 78 a3 3d 47 c9 8d be 4d 94 9a bc
       -0.0068230233 0.0798189 -0.27692625 -0.018869543
0002e0 ee ae 94 3d b9 cd f2 be b5 87 d0 3e 66 90 03 3c
       0.07259928 -0.4742258 0.40728536 0.008030033
0002f0 96 bc 16 be 80 5d eb bd ec 8d f4 bd b0 73 3a 3d
       -0.14720377 -0.11492443 -0.11941132 0.045520484
000300 7f 84 ac 3d d6 75 1a bd 77 5e 2d bd 14 dc f1 3d
       0.08423709 -0.037710033 -0.042326417 0.11809555
000310 5c ed 01 bc 4e ba 1c bc d9 dd dc bd b0 b6 4c ba
       -0.007930126 -0.009565903 -0.107845016 -0.0007809205
000320 c3 ac e9 bd 47 68 61 3e 78 13 c6 3d 2b ed e1 3d
       -0.11409905 0.22012435 0.09671682 0.11031564
000330 61 a5 58 bd 0d e4 80 3c f8 58 30 3d 1a 3a 91 3d
       -0.052892093 0.015733743 0.043053597 0.0709116
000340 b6 36 24 3e a5 18 a1 3b 4e 94 9a 3d 10 a0 b0 bd
       0.16036496 0.004916268 0.07547818 -0.086242795
000350 75 7e 97 bb ca 68 50 3d 08 12 ba bd 74 0b f4 bd
       -0.004623229 0.050881185 -0.090854704 -0.11916247
000360 3d 1b 97 3c 41 5e 42 bd 79 33 49 be 04 c2 0c 3e
       0.018445605 -0.04745317 -0.19648542 0.13745886
000370 c9 3c a3 bd 5d e7 1f be 19 00 d0 bd e0 e1 b7 bc
       -0.07970578 -0.15615602 -0.101562686 -0.022446573
000380 65 43 e0 bc 12 f4 93 bd b5 04 93 bd 5e cf 9f bd
       -0.027375886 -0.07224287 -0.07178632 -0.07803224
000390 50 50 26 3f ee 7c 1c bd 42 34 ec 3d ab 45 e6 3b
       0.649663 -0.03820508 0.11533405 0.007027348
0003a0 1c fd f5 bd 49 7b ef 3d c3 b1 78 be a8 1b 5a be
       -0.120111674 0.11693437 -0.2428656 -0.21299613
0003b0 e6 b6 1e 3d 54 76 83 bd e0 1e 4b 3e 55 ee 08 bf
       0.038748644 -0.06419054 0.19835997 -0.53488666
0003c0 73 ff 75 bd 18 ed b5 bd 97 c4 a9 bd 9d 00 9d 3b
       -0.06005807 -0.08883113 -0.0828945 0.004791333
0003d0 ec 0f 09 bd 40 89 bf 3c c5 fc 43 3d c2 b4 2d 3f
       -0.03346245 0.023380876 0.04784848 0.6785394
0003e0 a6 eb 90 bd 39 63 f7 3c 24 14 84 3c a7 c2 26 3d
       -0.07076196 0.03019868 0.016122885 0.04071298
0003f0 f7 8d a3 3d 41 05 ba bc 4c 97 0d 3e 44 09 25 be
       0.07986062 -0.022707583 0.13827246 -0.16116816

advantage.2.bias f4 [5]
000000 d4 dd 07 c0 8c 1e e0 be e9 6c 00 3f 3e a4 09 3f
       -2.1229143 -0.43773305 0.50166184 0.5376624
000010 dd b1 b9 3d
       0.09067128

value.0.weight f4 [128, 128]
000000 9b 1e e6 bd 10 88 34 bd 23 a1 00 3d 55 fa 86 bd
       -0.11236306 -0.04407507 0.031403672 -0.06590716
000010 e7 9e 22 3e 98 7e 3d be d7 78 a6 bc 75 a6 88 3d
       0.15880929 -0.18505323 -0.020321293 0.06672374
000020 82 37 d6 3d 9f d1 a8 bd 7b a5 e8 be 14 8d fa 3e
       0.10459806 -0.08243107 -0.45438752 0.4893576
000030 3e 71 11 3e bf fa aa bc 56 97 a3 3d 14 33 70 bd
       0.14203355 -0.020871518 0.079878494 -0.058642462
000040 e0 e9 be bc 2b 06 7b 3d 96 dd a9 bc 43 2f e7 3d
       -0.02330488 0.06128518 -0.020735543 0.11288311
000050 f7 43 a7 3d 3a 1e d8 be 92 b8 60 bd f7 67 21 bd
       0.0816726 -0.4221056 -0.05486352 -0.03940579
000060 4b 0a 66 3e 2a b4 45 bd c2 dc 61 bc fc cd 74 bd
       0.22464864 -0.04826752 -0.013785543 -0.059766755
000070 f1 13 cb bd 6f 5c a8 3d bd a5 82 bd 95 3d 81 3e
       -0.09915913 0.08220755 -0.06379268 0.25242296
000080 65 a5 8a 3d 7b 6b e1 3d 27 61 3e 3f fa 23 56 3b
       0.06769828 0.110068284 0.7436699 0.0032675252
000090 d2 9c d5 3c 6d d0 04 be 19 2f c4 3c 47 4d ad bb
       0.026075754 -0.12970133 0.02394824 -0.005288753
0000a0 d7 c4 aa 3c 71 5d 5e 3d 87 88 20 ba e1 06 cf bc
       0.020845814 0.05428833 -0.000612386 -0.025271835
0000b0 27 cc a8 3d 94 85 f5 bc b6 2a 26 bd 6d 92 86 3e
       0.08242064 -0.029970922 -0.040568076 0.2628359
0000c0 4f d9 34 3d 81 a2 59 bb 0d 98 10 3d 38 c6 bc bc
       0.044152554 -0.0033208432 0.035301257 -0.023043737
0000d0 52 98 5c bc 97 2c 21 3d 6c 5f 02 3e 9d 83 83 3d
       -0.01346405 0.039349165 0.12731713 0.064215876
0000e0 fc bb f7 bd 26 4d 00 3f ba 37 5a bd 85 60 96 3e
       -0.12096402 0.5011772 -0.0532758 0.29370514
0000f0 bf 4a 26 3c 75 c5 87 bd 42 b7 61 bd 44 f7 80 bd
       0.010149657 -0.06629459 -0.05510641 -0.06297162
000100 1b df 61 bd 8f b0 27 3e 7e 3e a7 bb 2d 94 8d be
       -0.05514441 0.16375946 -0.005103885 -0.27652112
000110 1f 8e ad 3d 8d 2d 0f be 7d 17 08 be 05 52 0e bb
       0.08474373 -0.1398222 -0.1329021 -0.0021716368
000120 4b 67 e3 bc 24 6e 0e bd f4 e8 7f 3e db 37 67 be
       -0.027759215 -0.034773007 0.24991208 -0.22579901
000130 f0 e8 b4 bd ed c2 80 bd 1f d9 2d bc 79 2d ca bd
       -0.08833492 -0.06287179 -0.010610848 -0.098719545
000140 bf cf ad bd 01 4d c8 bd 85 a9 8e bd e3 17 e1 bc
       -0.0848689 -0.09780312 -0.06965927 -0.02747721
000150 f6 cd 90 3e 7e d8 1e bd b9 cb d2 3c 70 f7 bc bb
       0.28282136 -0.03878068 0.025731908 -0.0057668015
000160 a2 d6 ee 3c b5 53 02 bf 6c 8f 7a 3b c0 34 b2 bd
       0.02915508 -0.50908977 0.0038232459 -0.087014675
000170 f4 06 7b bd ba c6 57 bd ed 40 85 3d 12 0e 59 3c
       -0.061285928 -0.052679755 0.06506524 0.0132479835
000180 61 5d 4b 3c d9 0e 40 3e 8a ea 63 3d 53 01 71 ba
       0.0124124 0.18755664 0.055643596 -0.0009193618
000190 0c c9 73 bd 95 37 02 bb a8 ea 3e 3e cf 45 3e 3b
       -0.059517905 -0.0019869555 0.18644202 0.0029033308
0001a0 fc 07 7c be f1 17 5b 3c ff 1f aa bd 27 02 00 3e
       -0.24612421 0.013372407 -0.08306884 0.12500821
0001b0 93 a0 7d 3b ee 43 91 bd 05 d3 85 be 9b c9 ef 3d
       0.0038700446 -0.07093035 -0.26137558 0.11708375
0001c0 a5 e8 84 bd 51 e9 5b 3c 31 21 ce bd 7f 09 b4 3c
       -0.06489686 0.013422326 -0.100649245 0.021977184
0001d0 c5 4b 8e bd bd fa 91 3c 9e bb 9b bd 64 0c fe bd
       -0.06948046 0.017819757 -0.076041445 -0.12404707
0001e0 3e 2c 90 3d e6 22 a6 3b 27 ed 2f 3e 5a af d1 3d
       0.070396885 0.005070078 0.1718031 0.10238524
0001f0 fc c8 f9 3e 6b 3a eb be 9a f3 e8 bc a1 51 4e bd
       0.4878615 -0.45943007 -0.02843647 -0.050370816
000200 e4 8e fb 3c 0e a1 9b bc ed 4c 83 bc 8d c2 8b bd
       0.030707784 -0.018997695 -0.016027892 -0.06824217
000210 88 d9 b8 bc 12 5e 54 bd ac 61 f2 bd 35 fe 89 bd
       -0.022564664 -0.051847525 -0.11835036 -0.06737939
000220 1b 69 7d bd f8 09 b9 bc e4 2e 72 be 5c 48 f7 bc
       -0.061867815 -0.022587761 -0.236507 -0.03018587
000230 e5 80 8e bc 73 6b e4 3d 51 7b cc 3c 96 18 9c bd
       -0.017395446 0.11153307 0.024961146 -0.07621877
000240 1f bf 29 3d 17 df af bd ed 9e 1f bd 51 2f c8 bd
       0.041442033 -0.08587473 -0.038969923 -0.0977465
000250 d3 e6 6a 3d c3 cc 6c be 76 86 9e bd 8d f4 8b bd
       0.057349037 -0.23124985 -0.0774049 -0.06833754
000260 1f 6d a6 bb 6e 6f 10 bd cf 57 a2 3b 5f f5 21 3d
       -0.005078926 -0.035262518 0.0049543153 0.039540645
000270 c5 61 82 bd 2c a4 02 bd 41 e1 41 3d e6 e8 1e be
       -0.06366304 -0.031894848 0.04733396 -0.15518531
000280 9c 2c 05 3c 0d 06 07 be 1f 3a 22 3d 35 c5 1f 3d
       0.0081283115 -0.13185902 0.03960621 0.03900643
000290 91 a6 ca bc 1b e8 ec bd aa a1 df bc 73 b8 ec bd
       -0.024737628 -0.11567708 -0.027298767 -0.115586184
0002a0 b6 00 2d bd d6 1c 94 bd f4 27 02 3d ac 4e 71 bc
       -0.042237006 -0.072320625 0.031776384 -0.0147282295
0002b0 93 9a 7e 3d 8c 22 7c bd d0 78 c2 3c 6b d7 6e 3b
       0.062159132 -0.061556384 0.023739249 0.0036444317
0002c0 b3 43 f4 bb 0b 4e e2 bd d8 a0 49 3c 15 cf 88 bc
       -0.0074543594 -0.11050042 0.012306415 -0.016700307
0002d0 34 ab 82 3c 28 bf bf bd 7c cd f2 bd a1 81 c6 bd
       0.015950777 -0.09362632 -0.11855599 -0.096926935
0002e0 99 31 ce bc 45 18 88 bd 4d c7 05 be f6 18 91 3c
       -0.025170134 -0.06645254 -0.13064308 0.017712098
0002f0 8f 22 ae 3d a5 bf 0f 3d fd a0 08 3b 06 f5 10 be
       0.08502685 0.035094876 0.002084791 -0.14155969
000300 84 70 0b 3b e6 3f 9d bc 36 f8 23 3d e4 f8 fa bd
       0.0021276781 -0.019195508 0.040031634 -0.12254503
000310 78 f8 3d 3d c0 3e c1 ba 84 08 fb bd cc ba 05 bc
       0.046379536 -0.0014743432 -0.122574836 -0.008162212
000320 a0 07 b9 3c 4e bb a0 bc 20 9c b3 bd a8 66 bb be
       0.022586644 -0.019620564 -0.08770013 -0.36601758
000330 88 86 31 bc 67 61 26 3d 84 e1 8d bc bf 7e 2e bd
       -0.010835297 0.040620234 -0.017319448 -0.042601343
000340 8f 78 a8 bd fc 76 8f bb 2f a2 ac bd e2 e4 dc bd
       -0.0822612 -0.0043781977 -0.084293716 -0.107858434
000350 61 05 c9 3d 26 10 a6 bd f3 18 f8 bc fe de 1f bd
       0.09815479 -0.08108549 -0.030285334 -0.03903102
000360 37 6b ae bd 82 29 50 be 95 d6 8d bd bf 00 2a bd
       -0.08516543 -0.20328334 -0.06925694 -0.041504618
000370 7f b4 a4 3c 58 a1 b2 bd bc 27 7e 3d 32 c0 59 bd
       0.020105598 -0.0872218 0.062049612 -0.053161807
000380 72 d4 5f bd f9 4c cb bd 65 e8 83 3c 32 5b 55 3d
       -0.054645963 -0.09926791 0.016102025 0.052088924
000390 41 93 4e 3d a4 d4 7f bd 69 65 cf bb e0 c3 3c bb
       0.0504334 -0.06245865 -0.0063292277 -0.0028803274
0003a0 0a 56 50 bd 18 8b 3d 3d a6 00 9a 3d 7f 3e 27 bd
       -0.050863303 0.04627523 0.07519655 -0.040831085
0003b0 7c bb f5 bd ac 7b 76 bd 86 f5 92 bd d4 8c 79 bd
       -0.119986504 -0.060176536 -0.07175736 -0.06092532
0003c0 9b 83 ea 3c 0a 1a da ba 80 b4 bd bd 64 06 7f bb
       0.028627208 -0.001663984 -0.09262943 -0.0038913721
0003d0 4d a8 1f bd ba a5 50 bb 69 12 48 3d ae 9b 92 3d
       -0.038978864 -0.0031837062 0.048845682 0.071586
0003e0 96 75 19 bc 48 98 46 3c 1e 5c 14 bd 48 de cb bc
       -0.009366414 0.012121268 -0.036220662 -0.024886265
0003f0 cd 68 02 3c ca 38 d8 bd bf b6 ad bd 8e 94 9b bd
       0.007959557 -0.10557707 -0.08482122 -0.07596694

value.0.bias f4 [128]
000000 7a 18 da be f7 5c 27 be 94 2c d0 3f dc e2 f0 bd
       -0.425968 -0.16344057 1.6263604 -0.1176202
000010 df e9 a5 bc b0 6e bf bd 32 c1 5d 3c a2 63 64 3e
       -0.02025312 -0.09347284 0.013534831 0.22303632
000020 49 b9 cd bd 2f 48 22 be c3 49 6d bd 02 d2 e8 3d
       -0.10045106 -0.15847848 -0.057931673 0.11368181
000030 d1 8d 4b be 89 ac cc bd f8 97 b2 be d2 a8 f7 be
       -0.19878317 -0.09993846 -0.34881568 -0.48370987
000040 b8 f9 c2 3d c9 22 0d be 91 dd 45 3b d1 f7 ca bd
       0.09520286 -0.137828 0.0030191878 -0.099105485
000050 23 70 7d 3d a2 7d 68 3d cc dd 7b bd e6 90 1c bc
       0.06187452 0.056760438 -0.06149082 -0.009556031
000060 0c bd 75 be a0 76 33 be 37 30 23 bd 1c bf f7 be
       -0.23997897 -0.1752572 -0.039840903 -0.48387992
000070 1d b8 8d bc 75 ac 07 bd 3d 0a 05 be be 7d 91 bd
       -0.017299706 -0.033123452 -0.12992187 -0.071040615
000080 b7 c6 a5 bd fd 41 83 bd 4e 35 15 be 55 85 0d bd
       -0.080945425 -0.06409071 -0.14571115 -0.034550983
000090 8a 4a 80 3f 92 82 50 bd 9c e1 04 3d 22 84 50 bd
       1.0022748 -0.05090577 0.03244172 -0.05090726
0000a0 26 1e 93 bd 98 bf 47 3d d6 f3 a5 be 04 c1 00 3f
       -0.07183485 0.048766702 -0.32412595 0.5029452
0000b0 ac 94 f6 bd f5 2e 85 be 44 47 cc be 3a 13 a6 be
       -0.12040076 -0.26012388 -0.3989812 -0.32436544
0000c0 de 06 cf 3e 34 5d d0 3f 1d 4d 27 be 8e 1b 02 40
       0.40434927 1.6278443 -0.1633801 2.0329318
0000d0 48 b5 bd be 06 42 fd 3f 9d 02 0c be 36 01 2f 3d
       -0.3705237 1.9785774 -0.13672872 0.042725764
0000e0 43 81 8f bd 1f 23 aa be 38 69 bf be dd 5a 0f be
       -0.070070766 -0.3322992 -0.37384963 -0.13999505
0000f0 0e e3 90 bd 75 2f 87 be 5b 6e e0 bd 01 3f 5b 3d
       -0.07074557 -0.26403394 -0.10958549 0.053526882
000100 dd 6a 84 bd ab e3 8a 3b 54 3a f4 bd a5 2f 0e bd
       -0.06465695 0.004238566 -0.11925188 -0.034713406
000110 96 d8 8c 3e 0c 3f a5 bd af d7 21 be 93 19 6e be
       0.27508992 -0.08068666 -0.15804933 -0.23251943
000120 75 ca 1b 3e f5 9a 8c be 6e bb 94 bd 89 e2 c3 bd
       0.1521395 -0.27461973 -0.07262312 -0.095646925
000130 4f cb ae be 0b 0e d7 be 8a 7b d0 bc c0 47 33 bd
       -0.34139487 -0.420029 -0.025449533 -0.043769598
000140 4e 34 11 bd 22 3a 8f 3b a4 57 ff bd e8 1e 48 3d
       -0.035450272 0.0043709436 -0.12467888 0.0488576
000150 7f ae 25 be 4e 82 9d bd 99 9e c0 bd ab cc 75 3d
       -0.16179846 -0.07690869 -0.0940525 0.06000964
000160 b5 bd 30 be 23 e6 61 bd 6f b8 a1 bc db 36 7c bc
       -0.17259867 -0.055151116 -0.019741265 -0.015393938
000170 d2 c7 ad bd e4 d6 88 bc d6 cc 18 be 86 b6 29 3c
       -0.08485378 -0.01670403 -0.14921889 0.010358458
000180 20 e4 06 40 45 da 09 be 66 5f 1e bd d2 78 63 3f
       2.1076736 -0.1346217 -0.038665198 0.8885623
000190 6c 0e 03 3a 87 5a ae 3f e3 75 e2 bc 42 d3 54 be
       0.00049994024 1.3621377 -0.027644103 -0.20783713
0001a0 75 3c 89 be b2 4f a6 3e 11 f8 4b be 70 23 be bd
       -0.26803938 0.32482678 -0.19918849 -0.09284103
0001b0 a2 30 e0 be ae b7 1e be dc e4 78 be 30 3f 30 bd
       -0.43787104 -0.15499756 -0.24306053 -0.04302901
0001c0 6d 4c 81 be 09 ad 4e bd be b6 14 3d e3 a3 6b be
       -0.2525362 -0.050457988 0.03630709 -0.23011737
0001d0 88 61 e4 bc ab 37 00 be d0 18 b9 bd ff b1 b3 3b
       -0.027878538 -0.12521236 -0.09037936 0.0054838653
0001e0 47 96 a5 bc d9 1b 42 bd 37 5b 20 be 4f 73 2c be
       -0.02021326 -0.04738984 -0.15659796 -0.16840862
0001f0 c7 e9 28 3f 5e f6 25 bc 77 cc a3 be fe 71 94 bc
       0.65981716 -0.010129539 -0.31991932 -0.018120762

value.2.weight f4 [1, 128]
000000 e1 ab 59 bc 70 01 33 be 04 23 5c 3f 01 91 45 3d
       -0.013285608 -0.17481017 0.8599093 0.04823399
000010 94 ea f9 bc f2 0e 50 bc 9c f6 74 3d ff 9e b2 3c
       -0.030507363 -0.012698876 0.059805498 0.02180433
000020 75 f3 90 bc a5 4c 1e bd ec 81 f6 bb 34 b9 88 3b
       -0.017694214 -0.038647313 -0.007522812 0.0041724686
000030 48 37 b9 bc 00 bf 4e bd cd 61 98 3c b8 2d d7 3d
       -0.022609368 -0.05047512 0.018601323 0.10506767
000040 27 66 d7 39 81 8b 93 bc fe b4 26 bc 6e b5 15 3b
       0.00041084105 -0.018010857 -0.010174988 0.0022843736
000050 ea e5 5d bb 87 f5 ab bb 81 e8 5e 3c 51 14 40 bb
       -0.0033858963 -0.005247775 0.013605238 -0.0029308985
000060 19 fa d0 3c 0a b5 d5 3b 0c 39 72 bc 47 da 22 3e
       0.02550988 0.0065218257 -0.014784109 0.15903579
000070 88 7d 3f bd 95 bf 15 3c 89 30 50 3c 97 b2 2c bb
       -0.046750575 0.009139915 0.012706884 -0.0026351565
000080 1c c0 fb bd f3 e7 fb bb 38 be ce bb d3 21 76 bb
       -0.12292501 -0.0076875626 -0.006309297 -0.0037556782
000090 70 5a 6f 3e bf aa 2f be 65 fa 00 bb fc 58 7b bb
       0.23374343 -0.17154978 -0.0019680497 -0.00383526
0000a0 57 a4 25 ba c5 7b 06 3a 5c e1 83 3d 12 86 d2 bd
       -0.0006318739 0.00051301374 0.06439468 -0.10279478
0000b0 c2 f8 54 3d f0 5f 36 be ef 16 8a be 86 39 0b 3c
       0.051995046 -0.17810035 -0.26970622 0.008497601
0000c0 ea 30 74 bd c3 ef 87 3e 18 6e 68 bd d9 30 1f 3f
       -0.05961696 0.2655011 -0.05674562 0.6218391
0000d0 f7 86 a0 be 05 2c dd 3e ae a9 98 bc a3 18 e4 bb
       -0.3135297 0.43197647 -0.018635597 -0.0069609447
0000e0 95 51 86 bc f6 7c aa 3d 9d 39 87 3e d8 a0 30 bd
       -0.016396323 0.08324616 0.26411143 -0.043122143
0000f0 10 fd c6 3c 55 31 02 3e 8a ff d3 ba 42 4d 62 3a
       0.024290591 0.12714131 -0.0016174179 0.0008632728
000100 04 97 0f 3d d5 36 8d ba d2 b5 55 be db 16 e0 bc
       0.03505613 -0.0010773788 -0.2087014 -0.027354648
000110 12 4c a2 3c 27 b1 1e 3c 20 12 31 3b 94 cb 7a bd
       0.019811664 0.009685791 0.002701886 -0.061229303
000120 b3 57 2c ba ff 9d 2e be 71 13 c9 ba 1a 12 66 3c
       -0.00065743475 -0.17052458 -0.0015340877 0.014042402
000130 0e 5d 9e be ea 5a 73 be 34 24 f3 bc fc 9b 0d b9
       -0.3093037 -0.2376515 -0.029680349 -0.00013504917
000140 17 ac 2b bd 75 cd e7 3c b4 10 f0 3c cc 34 fa 3c
       -0.041912165 0.028296212 0.02930484 0.030542754
000150 e9 c0 46 bd 8a 73 e2 bc c5 4a 8a bc 57 0e a5 bb
       -0.048523817 -0.027642984 -0.016881356 -0.00503711
000160 de 23 e4 ba e7 5a 25 bb a1 9f 5a bc 06 49 1c bb
       -0.0017405709 -0.0025231184 -0.013343723 -0.0023847236
000170 9c 10 f1 3b 2d 92 9e bc a5 7a 0e 3c 19 4e c3 bb
       0.0073567163 -0.019356811 0.008696233 -0.0059602377
000180 fc 11 2b 3f df 84 ba 3c ac 70 fc bc d7 4b 78 3c
       0.66824317 0.022768436 -0.030815445 0.0151548
000190 c5 d2 1d 3d fd dd 54 3e 96 c4 10 3d ba 56 59 bc
       0.038531084 0.20787807 0.03534373 -0.013265306
0001a0 56 23 15 3e 9e 9c de 3e fd 7b 0a 3e 6d 18 12 3b
       0.14564261 0.43478864 0.1352386 0.002229239
0001b0 76 c2 b7 bd 47 e8 28 be d9 92 dc 3c a4 22 0c 3b
       -0.08972637 -0.16494857 0.026925491 0.0021382952
0001c0 aa 97 d0 3c 73 53 68 bb bf 0e 52 bb 6f 0b a9 bc
       0.025462944 -0.003545013 -0.0032052246 -0.020635335
0001d0 8d ee 05 bc 9f 33 21 bb 45 c8 8c bd 50 fa bb bc
       -0.008174551 -0.002459742 -0.06874136 -0.022946507
0001e0 96 95 9c bb 7a da db bc 5e c6 94 3c 2f 08 b5 3b
       -0.004778574 -0.026837576 0.018160995 0.005524657
0001f0 4c 14 e2 3c 08 87 cc 3c cc c7 07 3e 51 cb 47 3c
       0.027597569 0.024966732 0.1325981 0.0121944705
